{"format": "graph-model", "generatedBy": "2.3.0", "convertedBy": "TensorFlow.js Converter v2.3.0", "userDefinedMetadata": {"signature": {"inputs": {"keras_layer_1_input:0": {"name": "keras_layer_1_input:0", "dtype": "DT_FLOAT", "tensorShape": {"dim": [{"size": "-1"}, {"size": "224"}, {"size": "224"}, {"size": "3"}]}}}, "outputs": {"Identity:0": {"name": "Identity:0", "dtype": "DT_FLOAT", "tensorShape": {"dim": [{"size": "-1"}, {"size": "120"}]}}}}}, "modelTopology": {"node": [{"name": "unknown_261", "op": "Const", "attr": {"value": {"tensor": {"dtype": "DT_FLOAT", "tensorShape": {"dim": [{"size": "1001"}, {"size": "120"}]}}}, "dtype": {"type": "DT_FLOAT"}}}, {"name": "unknown_262", "op": "Const", "attr": {"value": {"tensor": {"dtype": "DT_FLOAT", "tensorShape": {"dim": [{"size": "120"}]}}}, "dtype": {"type": "DT_FLOAT"}}}, {"name": "keras_layer_1_input", "op": "Placeholder", "attr": {"dtype": {"type": "DT_FLOAT"}, "shape": {"shape": {"dim": [{"size": "-1"}, {"size": "224"}, {"size": "224"}, {"size": "3"}]}}}}, {"name": "StatefulPartitionedCall/sequential_2/keras_layer_1/StatefulPartitionedCall/StatefulPartitionedCall/StatefulPartitionedCall/predict/MobilenetV2/Conv/Conv2D_weights", "op": "Const", "attr": {"dtype": {"type": "DT_FLOAT"}, "value": {"tensor": {"dtype": "DT_FLOAT", "tensorShape": {"dim": [{"size": "3"}, {"size": "3"}, {"size": "3"}, {"size": "40"}]}}}}}, {"name": "StatefulPartitionedCall/sequential_2/keras_layer_1/StatefulPartitionedCall/StatefulPartitionedCall/StatefulPartitionedCall/predict/MobilenetV2/expanded_conv_14/expand/Conv2D_bn_offset", "op": "Const", "attr": {"value": {"tensor": {"dtype": "DT_FLOAT", "tensorShape": {"dim": [{"size": "1248"}]}}}, "dtype": {"type": "DT_FLOAT"}}}, {"name": "StatefulPartitionedCall/sequential_2/keras_layer_1/StatefulPartitionedCall/StatefulPartitionedCall/StatefulPartitionedCall/predict/MobilenetV2/Conv/Conv2D_bn_offset", "op": "Const", "attr": {"value": {"tensor": {"dtype": "DT_FLOAT", "tensorShape": {"dim": [{"size": "40"}]}}}, "dtype": {"type": "DT_FLOAT"}}}, {"name": "StatefulPartitionedCall/sequential_2/keras_layer_1/StatefulPartitionedCall/StatefulPartitionedCall/StatefulPartitionedCall/predict/MobilenetV2/expanded_conv/depthwise/depthwise_weights", "op": "Const", "attr": {"dtype": {"type": "DT_FLOAT"}, "value": {"tensor": {"dtype": "DT_FLOAT", "tensorShape": {"dim": [{"size": "3"}, {"size": "3"}, {"size": "40"}, {"size": "1"}]}}}}}, {"name": "StatefulPartitionedCall/sequential_2/keras_layer_1/StatefulPartitionedCall/StatefulPartitionedCall/StatefulPartitionedCall/predict/MobilenetV2/expanded_conv/depthwise/depthwise_bn_offset", "op": "Const", "attr": {"dtype": {"type": "DT_FLOAT"}, "value": {"tensor": {"dtype": "DT_FLOAT", "tensorShape": {"dim": [{"size": "40"}]}}}}}, {"name": "StatefulPartitionedCall/sequential_2/keras_layer_1/StatefulPartitionedCall/StatefulPartitionedCall/StatefulPartitionedCall/predict/MobilenetV2/expanded_conv/project/Conv2D_weights", "op": "Const", "attr": {"value": {"tensor": {"dtype": "DT_FLOAT", "tensorShape": {"dim": [{"size": "1"}, {"size": "1"}, {"size": "40"}, {"size": "24"}]}}}, "dtype": {"type": "DT_FLOAT"}}}, {"name": "StatefulPartitionedCall/sequential_2/keras_layer_1/StatefulPartitionedCall/StatefulPartitionedCall/StatefulPartitionedCall/predict/MobilenetV2/expanded_conv/project/Conv2D_bn_offset", "op": "Const", "attr": {"dtype": {"type": "DT_FLOAT"}, "value": {"tensor": {"dtype": "DT_FLOAT", "tensorShape": {"dim": [{"size": "24"}]}}}}}, {"name": "StatefulPartitionedCall/sequential_2/keras_layer_1/StatefulPartitionedCall/StatefulPartitionedCall/StatefulPartitionedCall/predict/MobilenetV2/expanded_conv_1/expand/Conv2D_weights", "op": "Const", "attr": {"dtype": {"type": "DT_FLOAT"}, "value": {"tensor": {"dtype": "DT_FLOAT", "tensorShape": {"dim": [{"size": "1"}, {"size": "1"}, {"size": "24"}, {"size": "144"}]}}}}}, {"name": "StatefulPartitionedCall/sequential_2/keras_layer_1/StatefulPartitionedCall/StatefulPartitionedCall/StatefulPartitionedCall/predict/MobilenetV2/expanded_conv_14/depthwise/depthwise_weights", "op": "Const", "attr": {"value": {"tensor": {"dtype": "DT_FLOAT", "tensorShape": {"dim": [{"size": "3"}, {"size": "3"}, {"size": "1248"}, {"size": "1"}]}}}, "dtype": {"type": "DT_FLOAT"}}}, {"name": "StatefulPartitionedCall/sequential_2/keras_layer_1/StatefulPartitionedCall/StatefulPartitionedCall/StatefulPartitionedCall/predict/MobilenetV2/expanded_conv_1/expand/Conv2D_bn_offset", "op": "Const", "attr": {"value": {"tensor": {"dtype": "DT_FLOAT", "tensorShape": {"dim": [{"size": "144"}]}}}, "dtype": {"type": "DT_FLOAT"}}}, {"name": "StatefulPartitionedCall/sequential_2/keras_layer_1/StatefulPartitionedCall/StatefulPartitionedCall/StatefulPartitionedCall/predict/MobilenetV2/expanded_conv_1/depthwise/depthwise_weights", "op": "Const", "attr": {"value": {"tensor": {"dtype": "DT_FLOAT", "tensorShape": {"dim": [{"size": "3"}, {"size": "3"}, {"size": "144"}, {"size": "1"}]}}}, "dtype": {"type": "DT_FLOAT"}}}, {"name": "StatefulPartitionedCall/sequential_2/keras_layer_1/StatefulPartitionedCall/StatefulPartitionedCall/StatefulPartitionedCall/predict/MobilenetV2/expanded_conv_1/depthwise/depthwise_bn_offset", "op": "Const", "attr": {"value": {"tensor": {"dtype": "DT_FLOAT", "tensorShape": {"dim": [{"size": "144"}]}}}, "dtype": {"type": "DT_FLOAT"}}}, {"name": "StatefulPartitionedCall/sequential_2/keras_layer_1/StatefulPartitionedCall/StatefulPartitionedCall/StatefulPartitionedCall/predict/MobilenetV2/expanded_conv_1/project/Conv2D_weights", "op": "Const", "attr": {"dtype": {"type": "DT_FLOAT"}, "value": {"tensor": {"dtype": "DT_FLOAT", "tensorShape": {"dim": [{"size": "1"}, {"size": "1"}, {"size": "144"}, {"size": "32"}]}}}}}, {"name": "StatefulPartitionedCall/sequential_2/keras_layer_1/StatefulPartitionedCall/StatefulPartitionedCall/StatefulPartitionedCall/predict/MobilenetV2/expanded_conv_14/depthwise/depthwise_bn_offset", "op": "Const", "attr": {"value": {"tensor": {"dtype": "DT_FLOAT", "tensorShape": {"dim": [{"size": "1248"}]}}}, "dtype": {"type": "DT_FLOAT"}}}, {"name": "StatefulPartitionedCall/sequential_2/keras_layer_1/StatefulPartitionedCall/StatefulPartitionedCall/StatefulPartitionedCall/predict/MobilenetV2/expanded_conv_1/project/Conv2D_bn_offset", "op": "Const", "attr": {"dtype": {"type": "DT_FLOAT"}, "value": {"tensor": {"dtype": "DT_FLOAT", "tensorShape": {"dim": [{"size": "32"}]}}}}}, {"name": "StatefulPartitionedCall/sequential_2/keras_layer_1/StatefulPartitionedCall/StatefulPartitionedCall/StatefulPartitionedCall/predict/MobilenetV2/expanded_conv_2/expand/Conv2D_weights", "op": "Const", "attr": {"value": {"tensor": {"dtype": "DT_FLOAT", "tensorShape": {"dim": [{"size": "1"}, {"size": "1"}, {"size": "32"}, {"size": "192"}]}}}, "dtype": {"type": "DT_FLOAT"}}}, {"name": "StatefulPartitionedCall/sequential_2/keras_layer_1/StatefulPartitionedCall/StatefulPartitionedCall/StatefulPartitionedCall/predict/MobilenetV2/expanded_conv_2/expand/Conv2D_bn_offset", "op": "Const", "attr": {"value": {"tensor": {"dtype": "DT_FLOAT", "tensorShape": {"dim": [{"size": "192"}]}}}, "dtype": {"type": "DT_FLOAT"}}}, {"name": "StatefulPartitionedCall/sequential_2/keras_layer_1/StatefulPartitionedCall/StatefulPartitionedCall/StatefulPartitionedCall/predict/MobilenetV2/expanded_conv_2/depthwise/depthwise_weights", "op": "Const", "attr": {"dtype": {"type": "DT_FLOAT"}, "value": {"tensor": {"dtype": "DT_FLOAT", "tensorShape": {"dim": [{"size": "3"}, {"size": "3"}, {"size": "192"}, {"size": "1"}]}}}}}, {"name": "StatefulPartitionedCall/sequential_2/keras_layer_1/StatefulPartitionedCall/StatefulPartitionedCall/StatefulPartitionedCall/predict/MobilenetV2/expanded_conv_2/depthwise/depthwise_bn_offset", "op": "Const", "attr": {"dtype": {"type": "DT_FLOAT"}, "value": {"tensor": {"dtype": "DT_FLOAT", "tensorShape": {"dim": [{"size": "192"}]}}}}}, {"name": "StatefulPartitionedCall/sequential_2/keras_layer_1/StatefulPartitionedCall/StatefulPartitionedCall/StatefulPartitionedCall/predict/MobilenetV2/expanded_conv_2/project/Conv2D_weights", "op": "Const", "attr": {"value": {"tensor": {"dtype": "DT_FLOAT", "tensorShape": {"dim": [{"size": "1"}, {"size": "1"}, {"size": "192"}, {"size": "32"}]}}}, "dtype": {"type": "DT_FLOAT"}}}, {"name": "StatefulPartitionedCall/sequential_2/keras_layer_1/StatefulPartitionedCall/StatefulPartitionedCall/StatefulPartitionedCall/predict/MobilenetV2/expanded_conv_14/project/Conv2D_weights", "op": "Const", "attr": {"value": {"tensor": {"dtype": "DT_FLOAT", "tensorShape": {"dim": [{"size": "1"}, {"size": "1"}, {"size": "1248"}, {"size": "208"}]}}}, "dtype": {"type": "DT_FLOAT"}}}, {"name": "StatefulPartitionedCall/sequential_2/keras_layer_1/StatefulPartitionedCall/StatefulPartitionedCall/StatefulPartitionedCall/predict/MobilenetV2/expanded_conv_2/project/Conv2D_bn_offset", "op": "Const", "attr": {"dtype": {"type": "DT_FLOAT"}, "value": {"tensor": {"dtype": "DT_FLOAT", "tensorShape": {"dim": [{"size": "32"}]}}}}}, {"name": "StatefulPartitionedCall/sequential_2/keras_layer_1/StatefulPartitionedCall/StatefulPartitionedCall/StatefulPartitionedCall/predict/MobilenetV2/expanded_conv_3/expand/Conv2D_weights", "op": "Const", "attr": {"value": {"tensor": {"dtype": "DT_FLOAT", "tensorShape": {"dim": [{"size": "1"}, {"size": "1"}, {"size": "32"}, {"size": "192"}]}}}, "dtype": {"type": "DT_FLOAT"}}}, {"name": "StatefulPartitionedCall/sequential_2/keras_layer_1/StatefulPartitionedCall/StatefulPartitionedCall/StatefulPartitionedCall/predict/MobilenetV2/Conv_1/Conv2D_bn_offset", "op": "Const", "attr": {"dtype": {"type": "DT_FLOAT"}, "value": {"tensor": {"dtype": "DT_FLOAT", "tensorShape": {"dim": [{"size": "1664"}]}}}}}, {"name": "StatefulPartitionedCall/sequential_2/keras_layer_1/StatefulPartitionedCall/StatefulPartitionedCall/StatefulPartitionedCall/predict/MobilenetV2/expanded_conv_3/expand/Conv2D_bn_offset", "op": "Const", "attr": {"dtype": {"type": "DT_FLOAT"}, "value": {"tensor": {"dtype": "DT_FLOAT", "tensorShape": {"dim": [{"size": "192"}]}}}}}, {"name": "StatefulPartitionedCall/sequential_2/keras_layer_1/StatefulPartitionedCall/StatefulPartitionedCall/StatefulPartitionedCall/predict/MobilenetV2/expanded_conv_14/project/Conv2D_bn_offset", "op": "Const", "attr": {"dtype": {"type": "DT_FLOAT"}, "value": {"tensor": {"dtype": "DT_FLOAT", "tensorShape": {"dim": [{"size": "208"}]}}}}}, {"name": "StatefulPartitionedCall/sequential_2/keras_layer_1/StatefulPartitionedCall/StatefulPartitionedCall/StatefulPartitionedCall/predict/MobilenetV2/expanded_conv_3/depthwise/depthwise_weights", "op": "Const", "attr": {"value": {"tensor": {"dtype": "DT_FLOAT", "tensorShape": {"dim": [{"size": "3"}, {"size": "3"}, {"size": "192"}, {"size": "1"}]}}}, "dtype": {"type": "DT_FLOAT"}}}, {"name": "StatefulPartitionedCall/sequential_2/keras_layer_1/StatefulPartitionedCall/StatefulPartitionedCall/StatefulPartitionedCall/predict/MobilenetV2/expanded_conv_3/depthwise/depthwise_bn_offset", "op": "Const", "attr": {"value": {"tensor": {"dtype": "DT_FLOAT", "tensorShape": {"dim": [{"size": "192"}]}}}, "dtype": {"type": "DT_FLOAT"}}}, {"name": "StatefulPartitionedCall/sequential_2/keras_layer_1/StatefulPartitionedCall/StatefulPartitionedCall/StatefulPartitionedCall/predict/MobilenetV2/expanded_conv_3/project/Conv2D_weights", "op": "Const", "attr": {"value": {"tensor": {"dtype": "DT_FLOAT", "tensorShape": {"dim": [{"size": "1"}, {"size": "1"}, {"size": "192"}, {"size": "40"}]}}}, "dtype": {"type": "DT_FLOAT"}}}, {"name": "StatefulPartitionedCall/sequential_2/keras_layer_1/StatefulPartitionedCall/StatefulPartitionedCall/StatefulPartitionedCall/predict/MobilenetV2/expanded_conv_3/project/Conv2D_bn_offset", "op": "Const", "attr": {"dtype": {"type": "DT_FLOAT"}, "value": {"tensor": {"dtype": "DT_FLOAT", "tensorShape": {"dim": [{"size": "40"}]}}}}}, {"name": "StatefulPartitionedCall/sequential_2/keras_layer_1/StatefulPartitionedCall/StatefulPartitionedCall/StatefulPartitionedCall/predict/MobilenetV2/expanded_conv_4/expand/Conv2D_weights", "op": "Const", "attr": {"value": {"tensor": {"dtype": "DT_FLOAT", "tensorShape": {"dim": [{"size": "1"}, {"size": "1"}, {"size": "40"}, {"size": "240"}]}}}, "dtype": {"type": "DT_FLOAT"}}}, {"name": "StatefulPartitionedCall/sequential_2/keras_layer_1/StatefulPartitionedCall/StatefulPartitionedCall/StatefulPartitionedCall/predict/MobilenetV2/expanded_conv_4/expand/Conv2D_bn_offset", "op": "Const", "attr": {"value": {"tensor": {"dtype": "DT_FLOAT", "tensorShape": {"dim": [{"size": "240"}]}}}, "dtype": {"type": "DT_FLOAT"}}}, {"name": "StatefulPartitionedCall/sequential_2/keras_layer_1/StatefulPartitionedCall/StatefulPartitionedCall/StatefulPartitionedCall/predict/MobilenetV2/expanded_conv_15/expand/Conv2D_weights", "op": "Const", "attr": {"value": {"tensor": {"dtype": "DT_FLOAT", "tensorShape": {"dim": [{"size": "1"}, {"size": "1"}, {"size": "208"}, {"size": "1248"}]}}}, "dtype": {"type": "DT_FLOAT"}}}, {"name": "StatefulPartitionedCall/sequential_2/keras_layer_1/StatefulPartitionedCall/StatefulPartitionedCall/StatefulPartitionedCall/predict/MobilenetV2/expanded_conv_4/depthwise/depthwise_weights", "op": "Const", "attr": {"value": {"tensor": {"dtype": "DT_FLOAT", "tensorShape": {"dim": [{"size": "3"}, {"size": "3"}, {"size": "240"}, {"size": "1"}]}}}, "dtype": {"type": "DT_FLOAT"}}}, {"name": "StatefulPartitionedCall/sequential_2/keras_layer_1/StatefulPartitionedCall/StatefulPartitionedCall/StatefulPartitionedCall/predict/MobilenetV2/expanded_conv_4/depthwise/depthwise_bn_offset", "op": "Const", "attr": {"dtype": {"type": "DT_FLOAT"}, "value": {"tensor": {"dtype": "DT_FLOAT", "tensorShape": {"dim": [{"size": "240"}]}}}}}, {"name": "StatefulPartitionedCall/sequential_2/keras_layer_1/StatefulPartitionedCall/StatefulPartitionedCall/StatefulPartitionedCall/predict/MobilenetV2/expanded_conv_4/project/Conv2D_weights", "op": "Const", "attr": {"value": {"tensor": {"dtype": "DT_FLOAT", "tensorShape": {"dim": [{"size": "1"}, {"size": "1"}, {"size": "240"}, {"size": "40"}]}}}, "dtype": {"type": "DT_FLOAT"}}}, {"name": "StatefulPartitionedCall/sequential_2/keras_layer_1/StatefulPartitionedCall/StatefulPartitionedCall/StatefulPartitionedCall/predict/MobilenetV2/expanded_conv_4/project/Conv2D_bn_offset", "op": "Const", "attr": {"dtype": {"type": "DT_FLOAT"}, "value": {"tensor": {"dtype": "DT_FLOAT", "tensorShape": {"dim": [{"size": "40"}]}}}}}, {"name": "StatefulPartitionedCall/sequential_2/keras_layer_1/StatefulPartitionedCall/StatefulPartitionedCall/StatefulPartitionedCall/predict/MobilenetV2/expanded_conv_5/expand/Conv2D_weights", "op": "Const", "attr": {"value": {"tensor": {"dtype": "DT_FLOAT", "tensorShape": {"dim": [{"size": "1"}, {"size": "1"}, {"size": "40"}, {"size": "240"}]}}}, "dtype": {"type": "DT_FLOAT"}}}, {"name": "StatefulPartitionedCall/sequential_2/keras_layer_1/StatefulPartitionedCall/StatefulPartitionedCall/StatefulPartitionedCall/predict/MobilenetV2/expanded_conv_15/expand/Conv2D_bn_offset", "op": "Const", "attr": {"value": {"tensor": {"dtype": "DT_FLOAT", "tensorShape": {"dim": [{"size": "1248"}]}}}, "dtype": {"type": "DT_FLOAT"}}}, {"name": "StatefulPartitionedCall/sequential_2/keras_layer_1/StatefulPartitionedCall/StatefulPartitionedCall/StatefulPartitionedCall/predict/MobilenetV2/expanded_conv_5/expand/Conv2D_bn_offset", "op": "Const", "attr": {"dtype": {"type": "DT_FLOAT"}, "value": {"tensor": {"dtype": "DT_FLOAT", "tensorShape": {"dim": [{"size": "240"}]}}}}}, {"name": "StatefulPartitionedCall/sequential_2/keras_layer_1/StatefulPartitionedCall/StatefulPartitionedCall/StatefulPartitionedCall/predict/MobilenetV2/expanded_conv_5/depthwise/depthwise_weights", "op": "Const", "attr": {"value": {"tensor": {"dtype": "DT_FLOAT", "tensorShape": {"dim": [{"size": "3"}, {"size": "3"}, {"size": "240"}, {"size": "1"}]}}}, "dtype": {"type": "DT_FLOAT"}}}, {"name": "StatefulPartitionedCall/sequential_2/keras_layer_1/StatefulPartitionedCall/StatefulPartitionedCall/StatefulPartitionedCall/predict/MobilenetV2/expanded_conv_5/depthwise/depthwise_bn_offset", "op": "Const", "attr": {"value": {"tensor": {"dtype": "DT_FLOAT", "tensorShape": {"dim": [{"size": "240"}]}}}, "dtype": {"type": "DT_FLOAT"}}}, {"name": "StatefulPartitionedCall/sequential_2/keras_layer_1/StatefulPartitionedCall/StatefulPartitionedCall/StatefulPartitionedCall/predict/MobilenetV2/expanded_conv_5/project/Conv2D_weights", "op": "Const", "attr": {"value": {"tensor": {"dtype": "DT_FLOAT", "tensorShape": {"dim": [{"size": "1"}, {"size": "1"}, {"size": "240"}, {"size": "40"}]}}}, "dtype": {"type": "DT_FLOAT"}}}, {"name": "StatefulPartitionedCall/sequential_2/keras_layer_1/StatefulPartitionedCall/StatefulPartitionedCall/StatefulPartitionedCall/predict/MobilenetV2/expanded_conv_5/project/Conv2D_bn_offset", "op": "Const", "attr": {"value": {"tensor": {"dtype": "DT_FLOAT", "tensorShape": {"dim": [{"size": "40"}]}}}, "dtype": {"type": "DT_FLOAT"}}}, {"name": "StatefulPartitionedCall/sequential_2/keras_layer_1/StatefulPartitionedCall/StatefulPartitionedCall/StatefulPartitionedCall/predict/MobilenetV2/expanded_conv_6/expand/Conv2D_weights", "op": "Const", "attr": {"dtype": {"type": "DT_FLOAT"}, "value": {"tensor": {"dtype": "DT_FLOAT", "tensorShape": {"dim": [{"size": "1"}, {"size": "1"}, {"size": "40"}, {"size": "240"}]}}}}}, {"name": "StatefulPartitionedCall/sequential_2/keras_layer_1/StatefulPartitionedCall/StatefulPartitionedCall/StatefulPartitionedCall/predict/MobilenetV2/expanded_conv_15/depthwise/depthwise_weights", "op": "Const", "attr": {"value": {"tensor": {"dtype": "DT_FLOAT", "tensorShape": {"dim": [{"size": "3"}, {"size": "3"}, {"size": "1248"}, {"size": "1"}]}}}, "dtype": {"type": "DT_FLOAT"}}}, {"name": "StatefulPartitionedCall/sequential_2/keras_layer_1/StatefulPartitionedCall/StatefulPartitionedCall/StatefulPartitionedCall/predict/MobilenetV2/expanded_conv_6/expand/Conv2D_bn_offset", "op": "Const", "attr": {"value": {"tensor": {"dtype": "DT_FLOAT", "tensorShape": {"dim": [{"size": "240"}]}}}, "dtype": {"type": "DT_FLOAT"}}}, {"name": "StatefulPartitionedCall/sequential_2/keras_layer_1/StatefulPartitionedCall/StatefulPartitionedCall/StatefulPartitionedCall/predict/MobilenetV2/expanded_conv_6/depthwise/depthwise_weights", "op": "Const", "attr": {"dtype": {"type": "DT_FLOAT"}, "value": {"tensor": {"dtype": "DT_FLOAT", "tensorShape": {"dim": [{"size": "3"}, {"size": "3"}, {"size": "240"}, {"size": "1"}]}}}}}, {"name": "StatefulPartitionedCall/sequential_2/keras_layer_1/StatefulPartitionedCall/StatefulPartitionedCall/StatefulPartitionedCall/predict/MobilenetV2/expanded_conv_6/depthwise/depthwise_bn_offset", "op": "Const", "attr": {"value": {"tensor": {"dtype": "DT_FLOAT", "tensorShape": {"dim": [{"size": "240"}]}}}, "dtype": {"type": "DT_FLOAT"}}}, {"name": "StatefulPartitionedCall/sequential_2/keras_layer_1/StatefulPartitionedCall/StatefulPartitionedCall/StatefulPartitionedCall/predict/MobilenetV2/expanded_conv_6/project/Conv2D_weights", "op": "Const", "attr": {"value": {"tensor": {"dtype": "DT_FLOAT", "tensorShape": {"dim": [{"size": "1"}, {"size": "1"}, {"size": "240"}, {"size": "80"}]}}}, "dtype": {"type": "DT_FLOAT"}}}, {"name": "StatefulPartitionedCall/sequential_2/keras_layer_1/StatefulPartitionedCall/StatefulPartitionedCall/StatefulPartitionedCall/predict/MobilenetV2/expanded_conv_15/depthwise/depthwise_bn_offset", "op": "Const", "attr": {"value": {"tensor": {"dtype": "DT_FLOAT", "tensorShape": {"dim": [{"size": "1248"}]}}}, "dtype": {"type": "DT_FLOAT"}}}, {"name": "StatefulPartitionedCall/sequential_2/keras_layer_1/StatefulPartitionedCall/StatefulPartitionedCall/StatefulPartitionedCall/predict/MobilenetV2/expanded_conv_6/project/Conv2D_bn_offset", "op": "Const", "attr": {"value": {"tensor": {"dtype": "DT_FLOAT", "tensorShape": {"dim": [{"size": "80"}]}}}, "dtype": {"type": "DT_FLOAT"}}}, {"name": "StatefulPartitionedCall/sequential_2/keras_layer_1/StatefulPartitionedCall/StatefulPartitionedCall/StatefulPartitionedCall/predict/MobilenetV2/expanded_conv_7/expand/Conv2D_weights", "op": "Const", "attr": {"value": {"tensor": {"dtype": "DT_FLOAT", "tensorShape": {"dim": [{"size": "1"}, {"size": "1"}, {"size": "80"}, {"size": "480"}]}}}, "dtype": {"type": "DT_FLOAT"}}}, {"name": "StatefulPartitionedCall/sequential_2/keras_layer_1/StatefulPartitionedCall/StatefulPartitionedCall/StatefulPartitionedCall/predict/MobilenetV2/expanded_conv_7/expand/Conv2D_bn_offset", "op": "Const", "attr": {"value": {"tensor": {"dtype": "DT_FLOAT", "tensorShape": {"dim": [{"size": "480"}]}}}, "dtype": {"type": "DT_FLOAT"}}}, {"name": "StatefulPartitionedCall/sequential_2/keras_layer_1/StatefulPartitionedCall/StatefulPartitionedCall/StatefulPartitionedCall/predict/MobilenetV2/expanded_conv_7/depthwise/depthwise_weights", "op": "Const", "attr": {"value": {"tensor": {"dtype": "DT_FLOAT", "tensorShape": {"dim": [{"size": "3"}, {"size": "3"}, {"size": "480"}, {"size": "1"}]}}}, "dtype": {"type": "DT_FLOAT"}}}, {"name": "StatefulPartitionedCall/sequential_2/keras_layer_1/StatefulPartitionedCall/StatefulPartitionedCall/StatefulPartitionedCall/predict/MobilenetV2/expanded_conv_7/depthwise/depthwise_bn_offset", "op": "Const", "attr": {"value": {"tensor": {"dtype": "DT_FLOAT", "tensorShape": {"dim": [{"size": "480"}]}}}, "dtype": {"type": "DT_FLOAT"}}}, {"name": "StatefulPartitionedCall/sequential_2/keras_layer_1/StatefulPartitionedCall/StatefulPartitionedCall/StatefulPartitionedCall/predict/MobilenetV2/expanded_conv_7/project/Conv2D_weights", "op": "Const", "attr": {"value": {"tensor": {"dtype": "DT_FLOAT", "tensorShape": {"dim": [{"size": "1"}, {"size": "1"}, {"size": "480"}, {"size": "80"}]}}}, "dtype": {"type": "DT_FLOAT"}}}, {"name": "StatefulPartitionedCall/sequential_2/keras_layer_1/StatefulPartitionedCall/StatefulPartitionedCall/StatefulPartitionedCall/predict/MobilenetV2/expanded_conv_15/project/Conv2D_weights", "op": "Const", "attr": {"dtype": {"type": "DT_FLOAT"}, "value": {"tensor": {"dtype": "DT_FLOAT", "tensorShape": {"dim": [{"size": "1"}, {"size": "1"}, {"size": "1248"}, {"size": "208"}]}}}}}, {"name": "StatefulPartitionedCall/sequential_2/keras_layer_1/StatefulPartitionedCall/StatefulPartitionedCall/StatefulPartitionedCall/predict/MobilenetV2/expanded_conv_7/project/Conv2D_bn_offset", "op": "Const", "attr": {"value": {"tensor": {"dtype": "DT_FLOAT", "tensorShape": {"dim": [{"size": "80"}]}}}, "dtype": {"type": "DT_FLOAT"}}}, {"name": "StatefulPartitionedCall/sequential_2/keras_layer_1/StatefulPartitionedCall/StatefulPartitionedCall/StatefulPartitionedCall/predict/MobilenetV2/expanded_conv_8/expand/Conv2D_weights", "op": "Const", "attr": {"value": {"tensor": {"dtype": "DT_FLOAT", "tensorShape": {"dim": [{"size": "1"}, {"size": "1"}, {"size": "80"}, {"size": "480"}]}}}, "dtype": {"type": "DT_FLOAT"}}}, {"name": "StatefulPartitionedCall/sequential_2/keras_layer_1/StatefulPartitionedCall/StatefulPartitionedCall/StatefulPartitionedCall/predict/MobilenetV2/expanded_conv_8/expand/Conv2D_bn_offset", "op": "Const", "attr": {"value": {"tensor": {"dtype": "DT_FLOAT", "tensorShape": {"dim": [{"size": "480"}]}}}, "dtype": {"type": "DT_FLOAT"}}}, {"name": "StatefulPartitionedCall/sequential_2/keras_layer_1/StatefulPartitionedCall/StatefulPartitionedCall/StatefulPartitionedCall/predict/MobilenetV2/expanded_conv_15/project/Conv2D_bn_offset", "op": "Const", "attr": {"value": {"tensor": {"dtype": "DT_FLOAT", "tensorShape": {"dim": [{"size": "208"}]}}}, "dtype": {"type": "DT_FLOAT"}}}, {"name": "StatefulPartitionedCall/sequential_2/keras_layer_1/StatefulPartitionedCall/StatefulPartitionedCall/StatefulPartitionedCall/predict/MobilenetV2/expanded_conv_8/depthwise/depthwise_weights", "op": "Const", "attr": {"value": {"tensor": {"dtype": "DT_FLOAT", "tensorShape": {"dim": [{"size": "3"}, {"size": "3"}, {"size": "480"}, {"size": "1"}]}}}, "dtype": {"type": "DT_FLOAT"}}}, {"name": "StatefulPartitionedCall/sequential_2/keras_layer_1/StatefulPartitionedCall/StatefulPartitionedCall/StatefulPartitionedCall/predict/MobilenetV2/expanded_conv_8/depthwise/depthwise_bn_offset", "op": "Const", "attr": {"value": {"tensor": {"dtype": "DT_FLOAT", "tensorShape": {"dim": [{"size": "480"}]}}}, "dtype": {"type": "DT_FLOAT"}}}, {"name": "StatefulPartitionedCall/sequential_2/keras_layer_1/StatefulPartitionedCall/StatefulPartitionedCall/StatefulPartitionedCall/predict/MobilenetV2/expanded_conv_8/project/Conv2D_weights", "op": "Const", "attr": {"value": {"tensor": {"dtype": "DT_FLOAT", "tensorShape": {"dim": [{"size": "1"}, {"size": "1"}, {"size": "480"}, {"size": "80"}]}}}, "dtype": {"type": "DT_FLOAT"}}}, {"name": "StatefulPartitionedCall/sequential_2/keras_layer_1/StatefulPartitionedCall/StatefulPartitionedCall/StatefulPartitionedCall/predict/MobilenetV2/expanded_conv_8/project/Conv2D_bn_offset", "op": "Const", "attr": {"dtype": {"type": "DT_FLOAT"}, "value": {"tensor": {"dtype": "DT_FLOAT", "tensorShape": {"dim": [{"size": "80"}]}}}}}, {"name": "StatefulPartitionedCall/sequential_2/keras_layer_1/StatefulPartitionedCall/StatefulPartitionedCall/StatefulPartitionedCall/predict/MobilenetV2/expanded_conv_9/expand/Conv2D_weights", "op": "Const", "attr": {"dtype": {"type": "DT_FLOAT"}, "value": {"tensor": {"dtype": "DT_FLOAT", "tensorShape": {"dim": [{"size": "1"}, {"size": "1"}, {"size": "80"}, {"size": "480"}]}}}}}, {"name": "StatefulPartitionedCall/sequential_2/keras_layer_1/StatefulPartitionedCall/StatefulPartitionedCall/StatefulPartitionedCall/predict/MobilenetV2/expanded_conv_9/expand/Conv2D_bn_offset", "op": "Const", "attr": {"dtype": {"type": "DT_FLOAT"}, "value": {"tensor": {"dtype": "DT_FLOAT", "tensorShape": {"dim": [{"size": "480"}]}}}}}, {"name": "StatefulPartitionedCall/sequential_2/keras_layer_1/StatefulPartitionedCall/StatefulPartitionedCall/StatefulPartitionedCall/predict/MobilenetV2/expanded_conv_16/expand/Conv2D_weights", "op": "Const", "attr": {"value": {"tensor": {"dtype": "DT_FLOAT", "tensorShape": {"dim": [{"size": "1"}, {"size": "1"}, {"size": "208"}, {"size": "1248"}]}}}, "dtype": {"type": "DT_FLOAT"}}}, {"name": "StatefulPartitionedCall/sequential_2/keras_layer_1/StatefulPartitionedCall/StatefulPartitionedCall/StatefulPartitionedCall/predict/MobilenetV2/expanded_conv_9/depthwise/depthwise_weights", "op": "Const", "attr": {"value": {"tensor": {"dtype": "DT_FLOAT", "tensorShape": {"dim": [{"size": "3"}, {"size": "3"}, {"size": "480"}, {"size": "1"}]}}}, "dtype": {"type": "DT_FLOAT"}}}, {"name": "StatefulPartitionedCall/sequential_2/keras_layer_1/StatefulPartitionedCall/StatefulPartitionedCall/StatefulPartitionedCall/predict/MobilenetV2/expanded_conv_9/depthwise/depthwise_bn_offset", "op": "Const", "attr": {"value": {"tensor": {"dtype": "DT_FLOAT", "tensorShape": {"dim": [{"size": "480"}]}}}, "dtype": {"type": "DT_FLOAT"}}}, {"name": "StatefulPartitionedCall/sequential_2/keras_layer_1/StatefulPartitionedCall/StatefulPartitionedCall/StatefulPartitionedCall/predict/MobilenetV2/expanded_conv_9/project/Conv2D_weights", "op": "Const", "attr": {"value": {"tensor": {"dtype": "DT_FLOAT", "tensorShape": {"dim": [{"size": "1"}, {"size": "1"}, {"size": "480"}, {"size": "80"}]}}}, "dtype": {"type": "DT_FLOAT"}}}, {"name": "StatefulPartitionedCall/sequential_2/keras_layer_1/StatefulPartitionedCall/StatefulPartitionedCall/StatefulPartitionedCall/predict/MobilenetV2/expanded_conv_9/project/Conv2D_bn_offset", "op": "Const", "attr": {"dtype": {"type": "DT_FLOAT"}, "value": {"tensor": {"dtype": "DT_FLOAT", "tensorShape": {"dim": [{"size": "80"}]}}}}}, {"name": "StatefulPartitionedCall/sequential_2/keras_layer_1/StatefulPartitionedCall/StatefulPartitionedCall/StatefulPartitionedCall/predict/MobilenetV2/expanded_conv_10/expand/Conv2D_weights", "op": "Const", "attr": {"value": {"tensor": {"dtype": "DT_FLOAT", "tensorShape": {"dim": [{"size": "1"}, {"size": "1"}, {"size": "80"}, {"size": "480"}]}}}, "dtype": {"type": "DT_FLOAT"}}}, {"name": "StatefulPartitionedCall/sequential_2/keras_layer_1/StatefulPartitionedCall/StatefulPartitionedCall/StatefulPartitionedCall/predict/MobilenetV2/expanded_conv_16/expand/Conv2D_bn_offset", "op": "Const", "attr": {"dtype": {"type": "DT_FLOAT"}, "value": {"tensor": {"dtype": "DT_FLOAT", "tensorShape": {"dim": [{"size": "1248"}]}}}}}, {"name": "StatefulPartitionedCall/sequential_2/keras_layer_1/StatefulPartitionedCall/StatefulPartitionedCall/StatefulPartitionedCall/predict/MobilenetV2/expanded_conv_10/expand/Conv2D_bn_offset", "op": "Const", "attr": {"dtype": {"type": "DT_FLOAT"}, "value": {"tensor": {"dtype": "DT_FLOAT", "tensorShape": {"dim": [{"size": "480"}]}}}}}, {"name": "StatefulPartitionedCall/sequential_2/keras_layer_1/StatefulPartitionedCall/StatefulPartitionedCall/StatefulPartitionedCall/predict/MobilenetV2/expanded_conv_10/depthwise/depthwise_weights", "op": "Const", "attr": {"value": {"tensor": {"dtype": "DT_FLOAT", "tensorShape": {"dim": [{"size": "3"}, {"size": "3"}, {"size": "480"}, {"size": "1"}]}}}, "dtype": {"type": "DT_FLOAT"}}}, {"name": "StatefulPartitionedCall/sequential_2/keras_layer_1/StatefulPartitionedCall/StatefulPartitionedCall/StatefulPartitionedCall/predict/MobilenetV2/expanded_conv_10/depthwise/depthwise_bn_offset", "op": "Const", "attr": {"value": {"tensor": {"dtype": "DT_FLOAT", "tensorShape": {"dim": [{"size": "480"}]}}}, "dtype": {"type": "DT_FLOAT"}}}, {"name": "StatefulPartitionedCall/sequential_2/keras_layer_1/StatefulPartitionedCall/StatefulPartitionedCall/StatefulPartitionedCall/predict/MobilenetV2/expanded_conv_10/project/Conv2D_weights", "op": "Const", "attr": {"value": {"tensor": {"dtype": "DT_FLOAT", "tensorShape": {"dim": [{"size": "1"}, {"size": "1"}, {"size": "480"}, {"size": "128"}]}}}, "dtype": {"type": "DT_FLOAT"}}}, {"name": "StatefulPartitionedCall/sequential_2/keras_layer_1/StatefulPartitionedCall/StatefulPartitionedCall/StatefulPartitionedCall/predict/MobilenetV2/expanded_conv_10/project/Conv2D_bn_offset", "op": "Const", "attr": {"value": {"tensor": {"dtype": "DT_FLOAT", "tensorShape": {"dim": [{"size": "128"}]}}}, "dtype": {"type": "DT_FLOAT"}}}, {"name": "StatefulPartitionedCall/sequential_2/keras_layer_1/StatefulPartitionedCall/StatefulPartitionedCall/StatefulPartitionedCall/predict/MobilenetV2/expanded_conv_11/expand/Conv2D_weights", "op": "Const", "attr": {"value": {"tensor": {"dtype": "DT_FLOAT", "tensorShape": {"dim": [{"size": "1"}, {"size": "1"}, {"size": "128"}, {"size": "768"}]}}}, "dtype": {"type": "DT_FLOAT"}}}, {"name": "StatefulPartitionedCall/sequential_2/keras_layer_1/StatefulPartitionedCall/StatefulPartitionedCall/StatefulPartitionedCall/predict/MobilenetV2/expanded_conv_16/depthwise/depthwise_weights", "op": "Const", "attr": {"value": {"tensor": {"dtype": "DT_FLOAT", "tensorShape": {"dim": [{"size": "3"}, {"size": "3"}, {"size": "1248"}, {"size": "1"}]}}}, "dtype": {"type": "DT_FLOAT"}}}, {"name": "StatefulPartitionedCall/sequential_2/keras_layer_1/StatefulPartitionedCall/StatefulPartitionedCall/StatefulPartitionedCall/predict/MobilenetV2/expanded_conv_11/expand/Conv2D_bn_offset", "op": "Const", "attr": {"value": {"tensor": {"dtype": "DT_FLOAT", "tensorShape": {"dim": [{"size": "768"}]}}}, "dtype": {"type": "DT_FLOAT"}}}, {"name": "StatefulPartitionedCall/sequential_2/keras_layer_1/StatefulPartitionedCall/StatefulPartitionedCall/StatefulPartitionedCall/predict/MobilenetV2/expanded_conv_11/depthwise/depthwise_weights", "op": "Const", "attr": {"value": {"tensor": {"dtype": "DT_FLOAT", "tensorShape": {"dim": [{"size": "3"}, {"size": "3"}, {"size": "768"}, {"size": "1"}]}}}, "dtype": {"type": "DT_FLOAT"}}}, {"name": "StatefulPartitionedCall/sequential_2/keras_layer_1/StatefulPartitionedCall/StatefulPartitionedCall/StatefulPartitionedCall/predict/MobilenetV2/expanded_conv_11/depthwise/depthwise_bn_offset", "op": "Const", "attr": {"value": {"tensor": {"dtype": "DT_FLOAT", "tensorShape": {"dim": [{"size": "768"}]}}}, "dtype": {"type": "DT_FLOAT"}}}, {"name": "StatefulPartitionedCall/sequential_2/keras_layer_1/StatefulPartitionedCall/StatefulPartitionedCall/StatefulPartitionedCall/predict/MobilenetV2/expanded_conv_11/project/Conv2D_weights", "op": "Const", "attr": {"value": {"tensor": {"dtype": "DT_FLOAT", "tensorShape": {"dim": [{"size": "1"}, {"size": "1"}, {"size": "768"}, {"size": "128"}]}}}, "dtype": {"type": "DT_FLOAT"}}}, {"name": "StatefulPartitionedCall/sequential_2/keras_layer_1/StatefulPartitionedCall/StatefulPartitionedCall/StatefulPartitionedCall/predict/MobilenetV2/expanded_conv_16/depthwise/depthwise_bn_offset", "op": "Const", "attr": {"dtype": {"type": "DT_FLOAT"}, "value": {"tensor": {"dtype": "DT_FLOAT", "tensorShape": {"dim": [{"size": "1248"}]}}}}}, {"name": "StatefulPartitionedCall/sequential_2/keras_layer_1/StatefulPartitionedCall/StatefulPartitionedCall/StatefulPartitionedCall/predict/MobilenetV2/expanded_conv_11/project/Conv2D_bn_offset", "op": "Const", "attr": {"dtype": {"type": "DT_FLOAT"}, "value": {"tensor": {"dtype": "DT_FLOAT", "tensorShape": {"dim": [{"size": "128"}]}}}}}, {"name": "StatefulPartitionedCall/sequential_2/keras_layer_1/StatefulPartitionedCall/StatefulPartitionedCall/StatefulPartitionedCall/predict/MobilenetV2/expanded_conv_12/expand/Conv2D_weights", "op": "Const", "attr": {"value": {"tensor": {"dtype": "DT_FLOAT", "tensorShape": {"dim": [{"size": "1"}, {"size": "1"}, {"size": "128"}, {"size": "768"}]}}}, "dtype": {"type": "DT_FLOAT"}}}, {"name": "StatefulPartitionedCall/sequential_2/keras_layer_1/StatefulPartitionedCall/StatefulPartitionedCall/StatefulPartitionedCall/predict/MobilenetV2/expanded_conv_12/expand/Conv2D_bn_offset", "op": "Const", "attr": {"dtype": {"type": "DT_FLOAT"}, "value": {"tensor": {"dtype": "DT_FLOAT", "tensorShape": {"dim": [{"size": "768"}]}}}}}, {"name": "StatefulPartitionedCall/sequential_2/keras_layer_1/StatefulPartitionedCall/StatefulPartitionedCall/StatefulPartitionedCall/predict/MobilenetV2/expanded_conv_12/depthwise/depthwise_weights", "op": "Const", "attr": {"value": {"tensor": {"dtype": "DT_FLOAT", "tensorShape": {"dim": [{"size": "3"}, {"size": "3"}, {"size": "768"}, {"size": "1"}]}}}, "dtype": {"type": "DT_FLOAT"}}}, {"name": "StatefulPartitionedCall/sequential_2/keras_layer_1/StatefulPartitionedCall/StatefulPartitionedCall/StatefulPartitionedCall/predict/MobilenetV2/expanded_conv_12/depthwise/depthwise_bn_offset", "op": "Const", "attr": {"dtype": {"type": "DT_FLOAT"}, "value": {"tensor": {"dtype": "DT_FLOAT", "tensorShape": {"dim": [{"size": "768"}]}}}}}, {"name": "StatefulPartitionedCall/sequential_2/keras_layer_1/StatefulPartitionedCall/StatefulPartitionedCall/StatefulPartitionedCall/predict/MobilenetV2/expanded_conv_12/project/Conv2D_weights", "op": "Const", "attr": {"value": {"tensor": {"dtype": "DT_FLOAT", "tensorShape": {"dim": [{"size": "1"}, {"size": "1"}, {"size": "768"}, {"size": "128"}]}}}, "dtype": {"type": "DT_FLOAT"}}}, {"name": "StatefulPartitionedCall/sequential_2/keras_layer_1/StatefulPartitionedCall/StatefulPartitionedCall/StatefulPartitionedCall/predict/MobilenetV2/expanded_conv_16/project/Conv2D_weights", "op": "Const", "attr": {"dtype": {"type": "DT_FLOAT"}, "value": {"tensor": {"dtype": "DT_FLOAT", "tensorShape": {"dim": [{"size": "1"}, {"size": "1"}, {"size": "1248"}, {"size": "416"}]}}}}}, {"name": "StatefulPartitionedCall/sequential_2/keras_layer_1/StatefulPartitionedCall/StatefulPartitionedCall/StatefulPartitionedCall/predict/MobilenetV2/expanded_conv_12/project/Conv2D_bn_offset", "op": "Const", "attr": {"value": {"tensor": {"dtype": "DT_FLOAT", "tensorShape": {"dim": [{"size": "128"}]}}}, "dtype": {"type": "DT_FLOAT"}}}, {"name": "StatefulPartitionedCall/sequential_2/keras_layer_1/StatefulPartitionedCall/StatefulPartitionedCall/StatefulPartitionedCall/predict/MobilenetV2/expanded_conv_13/expand/Conv2D_weights", "op": "Const", "attr": {"value": {"tensor": {"dtype": "DT_FLOAT", "tensorShape": {"dim": [{"size": "1"}, {"size": "1"}, {"size": "128"}, {"size": "768"}]}}}, "dtype": {"type": "DT_FLOAT"}}}, {"name": "StatefulPartitionedCall/sequential_2/keras_layer_1/StatefulPartitionedCall/StatefulPartitionedCall/StatefulPartitionedCall/predict/MobilenetV2/expanded_conv_13/expand/Conv2D_bn_offset", "op": "Const", "attr": {"value": {"tensor": {"dtype": "DT_FLOAT", "tensorShape": {"dim": [{"size": "768"}]}}}, "dtype": {"type": "DT_FLOAT"}}}, {"name": "StatefulPartitionedCall/sequential_2/keras_layer_1/StatefulPartitionedCall/StatefulPartitionedCall/StatefulPartitionedCall/predict/MobilenetV2/expanded_conv_16/project/Conv2D_bn_offset", "op": "Const", "attr": {"value": {"tensor": {"dtype": "DT_FLOAT", "tensorShape": {"dim": [{"size": "416"}]}}}, "dtype": {"type": "DT_FLOAT"}}}, {"name": "StatefulPartitionedCall/sequential_2/keras_layer_1/StatefulPartitionedCall/StatefulPartitionedCall/StatefulPartitionedCall/predict/MobilenetV2/expanded_conv_13/depthwise/depthwise_weights", "op": "Const", "attr": {"value": {"tensor": {"dtype": "DT_FLOAT", "tensorShape": {"dim": [{"size": "3"}, {"size": "3"}, {"size": "768"}, {"size": "1"}]}}}, "dtype": {"type": "DT_FLOAT"}}}, {"name": "StatefulPartitionedCall/sequential_2/keras_layer_1/StatefulPartitionedCall/StatefulPartitionedCall/StatefulPartitionedCall/predict/MobilenetV2/expanded_conv_13/depthwise/depthwise_bn_offset", "op": "Const", "attr": {"value": {"tensor": {"dtype": "DT_FLOAT", "tensorShape": {"dim": [{"size": "768"}]}}}, "dtype": {"type": "DT_FLOAT"}}}, {"name": "StatefulPartitionedCall/sequential_2/keras_layer_1/StatefulPartitionedCall/StatefulPartitionedCall/StatefulPartitionedCall/predict/MobilenetV2/expanded_conv_13/project/Conv2D_weights", "op": "Const", "attr": {"value": {"tensor": {"dtype": "DT_FLOAT", "tensorShape": {"dim": [{"size": "1"}, {"size": "1"}, {"size": "768"}, {"size": "208"}]}}}, "dtype": {"type": "DT_FLOAT"}}}, {"name": "StatefulPartitionedCall/sequential_2/keras_layer_1/StatefulPartitionedCall/StatefulPartitionedCall/StatefulPartitionedCall/predict/MobilenetV2/expanded_conv_13/project/Conv2D_bn_offset", "op": "Const", "attr": {"value": {"tensor": {"dtype": "DT_FLOAT", "tensorShape": {"dim": [{"size": "208"}]}}}, "dtype": {"type": "DT_FLOAT"}}}, {"name": "StatefulPartitionedCall/sequential_2/keras_layer_1/StatefulPartitionedCall/StatefulPartitionedCall/StatefulPartitionedCall/predict/MobilenetV2/expanded_conv_14/expand/Conv2D_weights", "op": "Const", "attr": {"dtype": {"type": "DT_FLOAT"}, "value": {"tensor": {"dtype": "DT_FLOAT", "tensorShape": {"dim": [{"size": "1"}, {"size": "1"}, {"size": "208"}, {"size": "1248"}]}}}}}, {"name": "StatefulPartitionedCall/sequential_2/keras_layer_1/StatefulPartitionedCall/StatefulPartitionedCall/StatefulPartitionedCall/predict/MobilenetV2/Conv_1/Conv2D_weights", "op": "Const", "attr": {"value": {"tensor": {"dtype": "DT_FLOAT", "tensorShape": {"dim": [{"size": "1"}, {"size": "1"}, {"size": "416"}, {"size": "1664"}]}}}, "dtype": {"type": "DT_FLOAT"}}}, {"name": "StatefulPartitionedCall/sequential_2/keras_layer_1/StatefulPartitionedCall/StatefulPartitionedCall/StatefulPartitionedCall/predict/hub_input/Mul/y", "op": "Const", "input": ["^keras_layer_1_input"], "attr": {"dtype": {"type": "DT_FLOAT"}, "value": {"tensor": {"dtype": "DT_FLOAT", "tensorShape": {}}}}}, {"name": "StatefulPartitionedCall/sequential_2/keras_layer_1/StatefulPartitionedCall/StatefulPartitionedCall/StatefulPartitionedCall/predict/hub_input/Sub/y", "op": "Const", "input": ["^keras_layer_1_input"], "attr": {"value": {"tensor": {"dtype": "DT_FLOAT", "tensorShape": {}}}, "dtype": {"type": "DT_FLOAT"}}}, {"name": "StatefulPartitionedCall/sequential_2/keras_layer_1/StatefulPartitionedCall/StatefulPartitionedCall/StatefulPartitionedCall/predict/MobilenetV2/Logits/Conv2d_1c_1x1/Conv2D/ReadVariableOp", "op": "Const", "input": ["^keras_layer_1_input"], "attr": {"value": {"tensor": {"dtype": "DT_FLOAT", "tensorShape": {"dim": [{"size": "1"}, {"size": "1"}, {"size": "1664"}, {"size": "1001"}]}}}, "dtype": {"type": "DT_FLOAT"}}}, {"name": "StatefulPartitionedCall/sequential_2/keras_layer_1/StatefulPartitionedCall/StatefulPartitionedCall/StatefulPartitionedCall/predict/MobilenetV2/Logits/Conv2d_1c_1x1/BiasAdd/ReadVariableOp", "op": "Const", "input": ["^keras_layer_1_input"], "attr": {"dtype": {"type": "DT_FLOAT"}, "value": {"tensor": {"dtype": "DT_FLOAT", "tensorShape": {"dim": [{"size": "1001"}]}}}}}, {"name": "StatefulPartitionedCall/sequential_2/keras_layer_1/StatefulPartitionedCall/StatefulPartitionedCall/StatefulPartitionedCall/predict/hub_input/Mul", "op": "Mul", "input": ["keras_layer_1_input", "StatefulPartitionedCall/sequential_2/keras_layer_1/StatefulPartitionedCall/StatefulPartitionedCall/StatefulPartitionedCall/predict/hub_input/Mul/y"], "attr": {"T": {"type": "DT_FLOAT"}}}, {"name": "StatefulPartitionedCall/sequential_2/keras_layer_1/StatefulPartitionedCall/StatefulPartitionedCall/StatefulPartitionedCall/predict/hub_input/Sub", "op": "Sub", "input": ["StatefulPartitionedCall/sequential_2/keras_layer_1/StatefulPartitionedCall/StatefulPartitionedCall/StatefulPartitionedCall/predict/hub_input/Mul", "StatefulPartitionedCall/sequential_2/keras_layer_1/StatefulPartitionedCall/StatefulPartitionedCall/StatefulPartitionedCall/predict/hub_input/Sub/y"], "attr": {"T": {"type": "DT_FLOAT"}}}, {"name": "StatefulPartitionedCall/sequential_2/keras_layer_1/StatefulPartitionedCall/StatefulPartitionedCall/StatefulPartitionedCall/predict/MobilenetV2/Conv/Relu6", "op": "_FusedConv2D", "input": ["StatefulPartitionedCall/sequential_2/keras_layer_1/StatefulPartitionedCall/StatefulPartitionedCall/StatefulPartitionedCall/predict/hub_input/Sub", "StatefulPartitionedCall/sequential_2/keras_layer_1/StatefulPartitionedCall/StatefulPartitionedCall/StatefulPartitionedCall/predict/MobilenetV2/Conv/Conv2D_weights", "StatefulPartitionedCall/sequential_2/keras_layer_1/StatefulPartitionedCall/StatefulPartitionedCall/StatefulPartitionedCall/predict/MobilenetV2/Conv/Conv2D_bn_offset"], "device": "/device:CPU:0", "attr": {"dilations": {"list": {"i": ["1", "1", "1", "1"]}}, "T": {"type": "DT_FLOAT"}, "data_format": {"s": "TkhXQw=="}, "strides": {"list": {"i": ["1", "2", "2", "1"]}}, "explicit_paddings": {"list": {}}, "use_cudnn_on_gpu": {"b": true}, "num_args": {"i": "1"}, "epsilon": {"f": 0.0}, "padding": {"s": "U0FNRQ=="}, "fused_ops": {"list": {"s": ["Qmlhc0FkZA==", "UmVsdTY="]}}}}, {"name": "StatefulPartitionedCall/sequential_2/keras_layer_1/StatefulPartitionedCall/StatefulPartitionedCall/StatefulPartitionedCall/predict/MobilenetV2/expanded_conv/depthwise/depthwise", "op": "FusedDepthwiseConv2dNative", "input": ["StatefulPartitionedCall/sequential_2/keras_layer_1/StatefulPartitionedCall/StatefulPartitionedCall/StatefulPartitionedCall/predict/MobilenetV2/Conv/Relu6", "StatefulPartitionedCall/sequential_2/keras_layer_1/StatefulPartitionedCall/StatefulPartitionedCall/StatefulPartitionedCall/predict/MobilenetV2/expanded_conv/depthwise/depthwise_weights", "StatefulPartitionedCall/sequential_2/keras_layer_1/StatefulPartitionedCall/StatefulPartitionedCall/StatefulPartitionedCall/predict/MobilenetV2/expanded_conv/depthwise/depthwise_bn_offset"], "attr": {"data_format": {"s": "TkhXQw=="}, "strides": {"list": {"i": ["1", "1", "1", "1"]}}, "explicit_paddings": {"list": {}}, "num_args": {"i": "1"}, "padding": {"s": "U0FNRQ=="}, "fused_ops": {"list": {"s": ["Qmlhc0FkZA==", "UmVsdTY="]}}, "dilations": {"list": {"i": ["1", "1", "1", "1"]}}, "T": {"type": "DT_FLOAT"}}}, {"name": "StatefulPartitionedCall/sequential_2/keras_layer_1/StatefulPartitionedCall/StatefulPartitionedCall/StatefulPartitionedCall/predict/MobilenetV2/expanded_conv/project/BatchNorm/FusedBatchNormV3", "op": "_FusedConv2D", "input": ["StatefulPartitionedCall/sequential_2/keras_layer_1/StatefulPartitionedCall/StatefulPartitionedCall/StatefulPartitionedCall/predict/MobilenetV2/expanded_conv/depthwise/depthwise", "StatefulPartitionedCall/sequential_2/keras_layer_1/StatefulPartitionedCall/StatefulPartitionedCall/StatefulPartitionedCall/predict/MobilenetV2/expanded_conv/project/Conv2D_weights", "StatefulPartitionedCall/sequential_2/keras_layer_1/StatefulPartitionedCall/StatefulPartitionedCall/StatefulPartitionedCall/predict/MobilenetV2/expanded_conv/project/Conv2D_bn_offset"], "device": "/device:CPU:0", "attr": {"dilations": {"list": {"i": ["1", "1", "1", "1"]}}, "T": {"type": "DT_FLOAT"}, "data_format": {"s": "TkhXQw=="}, "strides": {"list": {"i": ["1", "1", "1", "1"]}}, "use_cudnn_on_gpu": {"b": true}, "explicit_paddings": {"list": {}}, "num_args": {"i": "1"}, "epsilon": {"f": 0.0}, "padding": {"s": "U0FNRQ=="}, "fused_ops": {"list": {"s": ["Qmlhc0FkZA=="]}}}}, {"name": "StatefulPartitionedCall/sequential_2/keras_layer_1/StatefulPartitionedCall/StatefulPartitionedCall/StatefulPartitionedCall/predict/MobilenetV2/expanded_conv_1/expand/Relu6", "op": "_FusedConv2D", "input": ["StatefulPartitionedCall/sequential_2/keras_layer_1/StatefulPartitionedCall/StatefulPartitionedCall/StatefulPartitionedCall/predict/MobilenetV2/expanded_conv/project/BatchNorm/FusedBatchNormV3", "StatefulPartitionedCall/sequential_2/keras_layer_1/StatefulPartitionedCall/StatefulPartitionedCall/StatefulPartitionedCall/predict/MobilenetV2/expanded_conv_1/expand/Conv2D_weights", "StatefulPartitionedCall/sequential_2/keras_layer_1/StatefulPartitionedCall/StatefulPartitionedCall/StatefulPartitionedCall/predict/MobilenetV2/expanded_conv_1/expand/Conv2D_bn_offset"], "device": "/device:CPU:0", "attr": {"epsilon": {"f": 0.0}, "padding": {"s": "U0FNRQ=="}, "fused_ops": {"list": {"s": ["Qmlhc0FkZA==", "UmVsdTY="]}}, "dilations": {"list": {"i": ["1", "1", "1", "1"]}}, "T": {"type": "DT_FLOAT"}, "data_format": {"s": "TkhXQw=="}, "strides": {"list": {"i": ["1", "1", "1", "1"]}}, "explicit_paddings": {"list": {}}, "use_cudnn_on_gpu": {"b": true}, "num_args": {"i": "1"}}}, {"name": "StatefulPartitionedCall/sequential_2/keras_layer_1/StatefulPartitionedCall/StatefulPartitionedCall/StatefulPartitionedCall/predict/MobilenetV2/expanded_conv_1/depthwise/depthwise", "op": "FusedDepthwiseConv2dNative", "input": ["StatefulPartitionedCall/sequential_2/keras_layer_1/StatefulPartitionedCall/StatefulPartitionedCall/StatefulPartitionedCall/predict/MobilenetV2/expanded_conv_1/expand/Relu6", "StatefulPartitionedCall/sequential_2/keras_layer_1/StatefulPartitionedCall/StatefulPartitionedCall/StatefulPartitionedCall/predict/MobilenetV2/expanded_conv_1/depthwise/depthwise_weights", "StatefulPartitionedCall/sequential_2/keras_layer_1/StatefulPartitionedCall/StatefulPartitionedCall/StatefulPartitionedCall/predict/MobilenetV2/expanded_conv_1/depthwise/depthwise_bn_offset"], "attr": {"strides": {"list": {"i": ["1", "2", "2", "1"]}}, "data_format": {"s": "TkhXQw=="}, "explicit_paddings": {"list": {}}, "num_args": {"i": "1"}, "padding": {"s": "U0FNRQ=="}, "fused_ops": {"list": {"s": ["Qmlhc0FkZA==", "UmVsdTY="]}}, "dilations": {"list": {"i": ["1", "1", "1", "1"]}}, "T": {"type": "DT_FLOAT"}}}, {"name": "StatefulPartitionedCall/sequential_2/keras_layer_1/StatefulPartitionedCall/StatefulPartitionedCall/StatefulPartitionedCall/predict/MobilenetV2/expanded_conv_1/project/BatchNorm/FusedBatchNormV3", "op": "_FusedConv2D", "input": ["StatefulPartitionedCall/sequential_2/keras_layer_1/StatefulPartitionedCall/StatefulPartitionedCall/StatefulPartitionedCall/predict/MobilenetV2/expanded_conv_1/depthwise/depthwise", "StatefulPartitionedCall/sequential_2/keras_layer_1/StatefulPartitionedCall/StatefulPartitionedCall/StatefulPartitionedCall/predict/MobilenetV2/expanded_conv_1/project/Conv2D_weights", "StatefulPartitionedCall/sequential_2/keras_layer_1/StatefulPartitionedCall/StatefulPartitionedCall/StatefulPartitionedCall/predict/MobilenetV2/expanded_conv_1/project/Conv2D_bn_offset"], "device": "/device:CPU:0", "attr": {"fused_ops": {"list": {"s": ["Qmlhc0FkZA=="]}}, "dilations": {"list": {"i": ["1", "1", "1", "1"]}}, "T": {"type": "DT_FLOAT"}, "data_format": {"s": "TkhXQw=="}, "strides": {"list": {"i": ["1", "1", "1", "1"]}}, "use_cudnn_on_gpu": {"b": true}, "explicit_paddings": {"list": {}}, "num_args": {"i": "1"}, "epsilon": {"f": 0.0}, "padding": {"s": "U0FNRQ=="}}}, {"name": "StatefulPartitionedCall/sequential_2/keras_layer_1/StatefulPartitionedCall/StatefulPartitionedCall/StatefulPartitionedCall/predict/MobilenetV2/expanded_conv_2/expand/Relu6", "op": "_FusedConv2D", "input": ["StatefulPartitionedCall/sequential_2/keras_layer_1/StatefulPartitionedCall/StatefulPartitionedCall/StatefulPartitionedCall/predict/MobilenetV2/expanded_conv_1/project/BatchNorm/FusedBatchNormV3", "StatefulPartitionedCall/sequential_2/keras_layer_1/StatefulPartitionedCall/StatefulPartitionedCall/StatefulPartitionedCall/predict/MobilenetV2/expanded_conv_2/expand/Conv2D_weights", "StatefulPartitionedCall/sequential_2/keras_layer_1/StatefulPartitionedCall/StatefulPartitionedCall/StatefulPartitionedCall/predict/MobilenetV2/expanded_conv_2/expand/Conv2D_bn_offset"], "device": "/device:CPU:0", "attr": {"dilations": {"list": {"i": ["1", "1", "1", "1"]}}, "T": {"type": "DT_FLOAT"}, "data_format": {"s": "TkhXQw=="}, "strides": {"list": {"i": ["1", "1", "1", "1"]}}, "use_cudnn_on_gpu": {"b": true}, "explicit_paddings": {"list": {}}, "num_args": {"i": "1"}, "epsilon": {"f": 0.0}, "padding": {"s": "U0FNRQ=="}, "fused_ops": {"list": {"s": ["Qmlhc0FkZA==", "UmVsdTY="]}}}}, {"name": "StatefulPartitionedCall/sequential_2/keras_layer_1/StatefulPartitionedCall/StatefulPartitionedCall/StatefulPartitionedCall/predict/MobilenetV2/expanded_conv_2/depthwise/depthwise", "op": "FusedDepthwiseConv2dNative", "input": ["StatefulPartitionedCall/sequential_2/keras_layer_1/StatefulPartitionedCall/StatefulPartitionedCall/StatefulPartitionedCall/predict/MobilenetV2/expanded_conv_2/expand/Relu6", "StatefulPartitionedCall/sequential_2/keras_layer_1/StatefulPartitionedCall/StatefulPartitionedCall/StatefulPartitionedCall/predict/MobilenetV2/expanded_conv_2/depthwise/depthwise_weights", "StatefulPartitionedCall/sequential_2/keras_layer_1/StatefulPartitionedCall/StatefulPartitionedCall/StatefulPartitionedCall/predict/MobilenetV2/expanded_conv_2/depthwise/depthwise_bn_offset"], "attr": {"data_format": {"s": "TkhXQw=="}, "strides": {"list": {"i": ["1", "1", "1", "1"]}}, "explicit_paddings": {"list": {}}, "num_args": {"i": "1"}, "padding": {"s": "U0FNRQ=="}, "fused_ops": {"list": {"s": ["Qmlhc0FkZA==", "UmVsdTY="]}}, "dilations": {"list": {"i": ["1", "1", "1", "1"]}}, "T": {"type": "DT_FLOAT"}}}, {"name": "StatefulPartitionedCall/sequential_2/keras_layer_1/StatefulPartitionedCall/StatefulPartitionedCall/StatefulPartitionedCall/predict/MobilenetV2/expanded_conv_2/project/BatchNorm/FusedBatchNormV3", "op": "_FusedConv2D", "input": ["StatefulPartitionedCall/sequential_2/keras_layer_1/StatefulPartitionedCall/StatefulPartitionedCall/StatefulPartitionedCall/predict/MobilenetV2/expanded_conv_2/depthwise/depthwise", "StatefulPartitionedCall/sequential_2/keras_layer_1/StatefulPartitionedCall/StatefulPartitionedCall/StatefulPartitionedCall/predict/MobilenetV2/expanded_conv_2/project/Conv2D_weights", "StatefulPartitionedCall/sequential_2/keras_layer_1/StatefulPartitionedCall/StatefulPartitionedCall/StatefulPartitionedCall/predict/MobilenetV2/expanded_conv_2/project/Conv2D_bn_offset"], "device": "/device:CPU:0", "attr": {"data_format": {"s": "TkhXQw=="}, "strides": {"list": {"i": ["1", "1", "1", "1"]}}, "use_cudnn_on_gpu": {"b": true}, "explicit_paddings": {"list": {}}, "num_args": {"i": "1"}, "epsilon": {"f": 0.0}, "padding": {"s": "U0FNRQ=="}, "fused_ops": {"list": {"s": ["Qmlhc0FkZA=="]}}, "dilations": {"list": {"i": ["1", "1", "1", "1"]}}, "T": {"type": "DT_FLOAT"}}}, {"name": "StatefulPartitionedCall/sequential_2/keras_layer_1/StatefulPartitionedCall/StatefulPartitionedCall/StatefulPartitionedCall/predict/MobilenetV2/expanded_conv_2/add", "op": "AddV2", "input": ["StatefulPartitionedCall/sequential_2/keras_layer_1/StatefulPartitionedCall/StatefulPartitionedCall/StatefulPartitionedCall/predict/MobilenetV2/expanded_conv_2/project/BatchNorm/FusedBatchNormV3", "StatefulPartitionedCall/sequential_2/keras_layer_1/StatefulPartitionedCall/StatefulPartitionedCall/StatefulPartitionedCall/predict/MobilenetV2/expanded_conv_1/project/BatchNorm/FusedBatchNormV3"], "attr": {"T": {"type": "DT_FLOAT"}}}, {"name": "StatefulPartitionedCall/sequential_2/keras_layer_1/StatefulPartitionedCall/StatefulPartitionedCall/StatefulPartitionedCall/predict/MobilenetV2/expanded_conv_3/expand/Relu6", "op": "_FusedConv2D", "input": ["StatefulPartitionedCall/sequential_2/keras_layer_1/StatefulPartitionedCall/StatefulPartitionedCall/StatefulPartitionedCall/predict/MobilenetV2/expanded_conv_2/add", "StatefulPartitionedCall/sequential_2/keras_layer_1/StatefulPartitionedCall/StatefulPartitionedCall/StatefulPartitionedCall/predict/MobilenetV2/expanded_conv_3/expand/Conv2D_weights", "StatefulPartitionedCall/sequential_2/keras_layer_1/StatefulPartitionedCall/StatefulPartitionedCall/StatefulPartitionedCall/predict/MobilenetV2/expanded_conv_3/expand/Conv2D_bn_offset"], "device": "/device:CPU:0", "attr": {"strides": {"list": {"i": ["1", "1", "1", "1"]}}, "data_format": {"s": "TkhXQw=="}, "use_cudnn_on_gpu": {"b": true}, "explicit_paddings": {"list": {}}, "num_args": {"i": "1"}, "epsilon": {"f": 0.0}, "padding": {"s": "U0FNRQ=="}, "fused_ops": {"list": {"s": ["Qmlhc0FkZA==", "UmVsdTY="]}}, "dilations": {"list": {"i": ["1", "1", "1", "1"]}}, "T": {"type": "DT_FLOAT"}}}, {"name": "StatefulPartitionedCall/sequential_2/keras_layer_1/StatefulPartitionedCall/StatefulPartitionedCall/StatefulPartitionedCall/predict/MobilenetV2/expanded_conv_3/depthwise/depthwise", "op": "FusedDepthwiseConv2dNative", "input": ["StatefulPartitionedCall/sequential_2/keras_layer_1/StatefulPartitionedCall/StatefulPartitionedCall/StatefulPartitionedCall/predict/MobilenetV2/expanded_conv_3/expand/Relu6", "StatefulPartitionedCall/sequential_2/keras_layer_1/StatefulPartitionedCall/StatefulPartitionedCall/StatefulPartitionedCall/predict/MobilenetV2/expanded_conv_3/depthwise/depthwise_weights", "StatefulPartitionedCall/sequential_2/keras_layer_1/StatefulPartitionedCall/StatefulPartitionedCall/StatefulPartitionedCall/predict/MobilenetV2/expanded_conv_3/depthwise/depthwise_bn_offset"], "attr": {"T": {"type": "DT_FLOAT"}, "strides": {"list": {"i": ["1", "2", "2", "1"]}}, "data_format": {"s": "TkhXQw=="}, "explicit_paddings": {"list": {}}, "num_args": {"i": "1"}, "padding": {"s": "U0FNRQ=="}, "fused_ops": {"list": {"s": ["Qmlhc0FkZA==", "UmVsdTY="]}}, "dilations": {"list": {"i": ["1", "1", "1", "1"]}}}}, {"name": "StatefulPartitionedCall/sequential_2/keras_layer_1/StatefulPartitionedCall/StatefulPartitionedCall/StatefulPartitionedCall/predict/MobilenetV2/expanded_conv_3/project/BatchNorm/FusedBatchNormV3", "op": "_FusedConv2D", "input": ["StatefulPartitionedCall/sequential_2/keras_layer_1/StatefulPartitionedCall/StatefulPartitionedCall/StatefulPartitionedCall/predict/MobilenetV2/expanded_conv_3/depthwise/depthwise", "StatefulPartitionedCall/sequential_2/keras_layer_1/StatefulPartitionedCall/StatefulPartitionedCall/StatefulPartitionedCall/predict/MobilenetV2/expanded_conv_3/project/Conv2D_weights", "StatefulPartitionedCall/sequential_2/keras_layer_1/StatefulPartitionedCall/StatefulPartitionedCall/StatefulPartitionedCall/predict/MobilenetV2/expanded_conv_3/project/Conv2D_bn_offset"], "device": "/device:CPU:0", "attr": {"fused_ops": {"list": {"s": ["Qmlhc0FkZA=="]}}, "dilations": {"list": {"i": ["1", "1", "1", "1"]}}, "T": {"type": "DT_FLOAT"}, "data_format": {"s": "TkhXQw=="}, "strides": {"list": {"i": ["1", "1", "1", "1"]}}, "explicit_paddings": {"list": {}}, "use_cudnn_on_gpu": {"b": true}, "num_args": {"i": "1"}, "epsilon": {"f": 0.0}, "padding": {"s": "U0FNRQ=="}}}, {"name": "StatefulPartitionedCall/sequential_2/keras_layer_1/StatefulPartitionedCall/StatefulPartitionedCall/StatefulPartitionedCall/predict/MobilenetV2/expanded_conv_4/expand/Relu6", "op": "_FusedConv2D", "input": ["StatefulPartitionedCall/sequential_2/keras_layer_1/StatefulPartitionedCall/StatefulPartitionedCall/StatefulPartitionedCall/predict/MobilenetV2/expanded_conv_3/project/BatchNorm/FusedBatchNormV3", "StatefulPartitionedCall/sequential_2/keras_layer_1/StatefulPartitionedCall/StatefulPartitionedCall/StatefulPartitionedCall/predict/MobilenetV2/expanded_conv_4/expand/Conv2D_weights", "StatefulPartitionedCall/sequential_2/keras_layer_1/StatefulPartitionedCall/StatefulPartitionedCall/StatefulPartitionedCall/predict/MobilenetV2/expanded_conv_4/expand/Conv2D_bn_offset"], "device": "/device:CPU:0", "attr": {"dilations": {"list": {"i": ["1", "1", "1", "1"]}}, "T": {"type": "DT_FLOAT"}, "strides": {"list": {"i": ["1", "1", "1", "1"]}}, "data_format": {"s": "TkhXQw=="}, "use_cudnn_on_gpu": {"b": true}, "explicit_paddings": {"list": {}}, "num_args": {"i": "1"}, "epsilon": {"f": 0.0}, "padding": {"s": "U0FNRQ=="}, "fused_ops": {"list": {"s": ["Qmlhc0FkZA==", "UmVsdTY="]}}}}, {"name": "StatefulPartitionedCall/sequential_2/keras_layer_1/StatefulPartitionedCall/StatefulPartitionedCall/StatefulPartitionedCall/predict/MobilenetV2/expanded_conv_4/depthwise/depthwise", "op": "FusedDepthwiseConv2dNative", "input": ["StatefulPartitionedCall/sequential_2/keras_layer_1/StatefulPartitionedCall/StatefulPartitionedCall/StatefulPartitionedCall/predict/MobilenetV2/expanded_conv_4/expand/Relu6", "StatefulPartitionedCall/sequential_2/keras_layer_1/StatefulPartitionedCall/StatefulPartitionedCall/StatefulPartitionedCall/predict/MobilenetV2/expanded_conv_4/depthwise/depthwise_weights", "StatefulPartitionedCall/sequential_2/keras_layer_1/StatefulPartitionedCall/StatefulPartitionedCall/StatefulPartitionedCall/predict/MobilenetV2/expanded_conv_4/depthwise/depthwise_bn_offset"], "attr": {"strides": {"list": {"i": ["1", "1", "1", "1"]}}, "data_format": {"s": "TkhXQw=="}, "explicit_paddings": {"list": {}}, "num_args": {"i": "1"}, "padding": {"s": "U0FNRQ=="}, "fused_ops": {"list": {"s": ["Qmlhc0FkZA==", "UmVsdTY="]}}, "dilations": {"list": {"i": ["1", "1", "1", "1"]}}, "T": {"type": "DT_FLOAT"}}}, {"name": "StatefulPartitionedCall/sequential_2/keras_layer_1/StatefulPartitionedCall/StatefulPartitionedCall/StatefulPartitionedCall/predict/MobilenetV2/expanded_conv_4/project/BatchNorm/FusedBatchNormV3", "op": "_FusedConv2D", "input": ["StatefulPartitionedCall/sequential_2/keras_layer_1/StatefulPartitionedCall/StatefulPartitionedCall/StatefulPartitionedCall/predict/MobilenetV2/expanded_conv_4/depthwise/depthwise", "StatefulPartitionedCall/sequential_2/keras_layer_1/StatefulPartitionedCall/StatefulPartitionedCall/StatefulPartitionedCall/predict/MobilenetV2/expanded_conv_4/project/Conv2D_weights", "StatefulPartitionedCall/sequential_2/keras_layer_1/StatefulPartitionedCall/StatefulPartitionedCall/StatefulPartitionedCall/predict/MobilenetV2/expanded_conv_4/project/Conv2D_bn_offset"], "device": "/device:CPU:0", "attr": {"fused_ops": {"list": {"s": ["Qmlhc0FkZA=="]}}, "dilations": {"list": {"i": ["1", "1", "1", "1"]}}, "T": {"type": "DT_FLOAT"}, "data_format": {"s": "TkhXQw=="}, "strides": {"list": {"i": ["1", "1", "1", "1"]}}, "use_cudnn_on_gpu": {"b": true}, "explicit_paddings": {"list": {}}, "num_args": {"i": "1"}, "epsilon": {"f": 0.0}, "padding": {"s": "U0FNRQ=="}}}, {"name": "StatefulPartitionedCall/sequential_2/keras_layer_1/StatefulPartitionedCall/StatefulPartitionedCall/StatefulPartitionedCall/predict/MobilenetV2/expanded_conv_4/add", "op": "AddV2", "input": ["StatefulPartitionedCall/sequential_2/keras_layer_1/StatefulPartitionedCall/StatefulPartitionedCall/StatefulPartitionedCall/predict/MobilenetV2/expanded_conv_4/project/BatchNorm/FusedBatchNormV3", "StatefulPartitionedCall/sequential_2/keras_layer_1/StatefulPartitionedCall/StatefulPartitionedCall/StatefulPartitionedCall/predict/MobilenetV2/expanded_conv_3/project/BatchNorm/FusedBatchNormV3"], "attr": {"T": {"type": "DT_FLOAT"}}}, {"name": "StatefulPartitionedCall/sequential_2/keras_layer_1/StatefulPartitionedCall/StatefulPartitionedCall/StatefulPartitionedCall/predict/MobilenetV2/expanded_conv_5/expand/Relu6", "op": "_FusedConv2D", "input": ["StatefulPartitionedCall/sequential_2/keras_layer_1/StatefulPartitionedCall/StatefulPartitionedCall/StatefulPartitionedCall/predict/MobilenetV2/expanded_conv_4/add", "StatefulPartitionedCall/sequential_2/keras_layer_1/StatefulPartitionedCall/StatefulPartitionedCall/StatefulPartitionedCall/predict/MobilenetV2/expanded_conv_5/expand/Conv2D_weights", "StatefulPartitionedCall/sequential_2/keras_layer_1/StatefulPartitionedCall/StatefulPartitionedCall/StatefulPartitionedCall/predict/MobilenetV2/expanded_conv_5/expand/Conv2D_bn_offset"], "device": "/device:CPU:0", "attr": {"epsilon": {"f": 0.0}, "padding": {"s": "U0FNRQ=="}, "fused_ops": {"list": {"s": ["Qmlhc0FkZA==", "UmVsdTY="]}}, "dilations": {"list": {"i": ["1", "1", "1", "1"]}}, "T": {"type": "DT_FLOAT"}, "strides": {"list": {"i": ["1", "1", "1", "1"]}}, "data_format": {"s": "TkhXQw=="}, "explicit_paddings": {"list": {}}, "use_cudnn_on_gpu": {"b": true}, "num_args": {"i": "1"}}}, {"name": "StatefulPartitionedCall/sequential_2/keras_layer_1/StatefulPartitionedCall/StatefulPartitionedCall/StatefulPartitionedCall/predict/MobilenetV2/expanded_conv_5/depthwise/depthwise", "op": "FusedDepthwiseConv2dNative", "input": ["StatefulPartitionedCall/sequential_2/keras_layer_1/StatefulPartitionedCall/StatefulPartitionedCall/StatefulPartitionedCall/predict/MobilenetV2/expanded_conv_5/expand/Relu6", "StatefulPartitionedCall/sequential_2/keras_layer_1/StatefulPartitionedCall/StatefulPartitionedCall/StatefulPartitionedCall/predict/MobilenetV2/expanded_conv_5/depthwise/depthwise_weights", "StatefulPartitionedCall/sequential_2/keras_layer_1/StatefulPartitionedCall/StatefulPartitionedCall/StatefulPartitionedCall/predict/MobilenetV2/expanded_conv_5/depthwise/depthwise_bn_offset"], "attr": {"strides": {"list": {"i": ["1", "1", "1", "1"]}}, "data_format": {"s": "TkhXQw=="}, "explicit_paddings": {"list": {}}, "num_args": {"i": "1"}, "padding": {"s": "U0FNRQ=="}, "fused_ops": {"list": {"s": ["Qmlhc0FkZA==", "UmVsdTY="]}}, "dilations": {"list": {"i": ["1", "1", "1", "1"]}}, "T": {"type": "DT_FLOAT"}}}, {"name": "StatefulPartitionedCall/sequential_2/keras_layer_1/StatefulPartitionedCall/StatefulPartitionedCall/StatefulPartitionedCall/predict/MobilenetV2/expanded_conv_5/project/BatchNorm/FusedBatchNormV3", "op": "_FusedConv2D", "input": ["StatefulPartitionedCall/sequential_2/keras_layer_1/StatefulPartitionedCall/StatefulPartitionedCall/StatefulPartitionedCall/predict/MobilenetV2/expanded_conv_5/depthwise/depthwise", "StatefulPartitionedCall/sequential_2/keras_layer_1/StatefulPartitionedCall/StatefulPartitionedCall/StatefulPartitionedCall/predict/MobilenetV2/expanded_conv_5/project/Conv2D_weights", "StatefulPartitionedCall/sequential_2/keras_layer_1/StatefulPartitionedCall/StatefulPartitionedCall/StatefulPartitionedCall/predict/MobilenetV2/expanded_conv_5/project/Conv2D_bn_offset"], "device": "/device:CPU:0", "attr": {"dilations": {"list": {"i": ["1", "1", "1", "1"]}}, "T": {"type": "DT_FLOAT"}, "data_format": {"s": "TkhXQw=="}, "strides": {"list": {"i": ["1", "1", "1", "1"]}}, "explicit_paddings": {"list": {}}, "use_cudnn_on_gpu": {"b": true}, "num_args": {"i": "1"}, "epsilon": {"f": 0.0}, "padding": {"s": "U0FNRQ=="}, "fused_ops": {"list": {"s": ["Qmlhc0FkZA=="]}}}}, {"name": "StatefulPartitionedCall/sequential_2/keras_layer_1/StatefulPartitionedCall/StatefulPartitionedCall/StatefulPartitionedCall/predict/MobilenetV2/expanded_conv_5/add", "op": "AddV2", "input": ["StatefulPartitionedCall/sequential_2/keras_layer_1/StatefulPartitionedCall/StatefulPartitionedCall/StatefulPartitionedCall/predict/MobilenetV2/expanded_conv_5/project/BatchNorm/FusedBatchNormV3", "StatefulPartitionedCall/sequential_2/keras_layer_1/StatefulPartitionedCall/StatefulPartitionedCall/StatefulPartitionedCall/predict/MobilenetV2/expanded_conv_4/add"], "attr": {"T": {"type": "DT_FLOAT"}}}, {"name": "StatefulPartitionedCall/sequential_2/keras_layer_1/StatefulPartitionedCall/StatefulPartitionedCall/StatefulPartitionedCall/predict/MobilenetV2/expanded_conv_6/expand/Relu6", "op": "_FusedConv2D", "input": ["StatefulPartitionedCall/sequential_2/keras_layer_1/StatefulPartitionedCall/StatefulPartitionedCall/StatefulPartitionedCall/predict/MobilenetV2/expanded_conv_5/add", "StatefulPartitionedCall/sequential_2/keras_layer_1/StatefulPartitionedCall/StatefulPartitionedCall/StatefulPartitionedCall/predict/MobilenetV2/expanded_conv_6/expand/Conv2D_weights", "StatefulPartitionedCall/sequential_2/keras_layer_1/StatefulPartitionedCall/StatefulPartitionedCall/StatefulPartitionedCall/predict/MobilenetV2/expanded_conv_6/expand/Conv2D_bn_offset"], "device": "/device:CPU:0", "attr": {"data_format": {"s": "TkhXQw=="}, "strides": {"list": {"i": ["1", "1", "1", "1"]}}, "explicit_paddings": {"list": {}}, "use_cudnn_on_gpu": {"b": true}, "num_args": {"i": "1"}, "epsilon": {"f": 0.0}, "padding": {"s": "U0FNRQ=="}, "fused_ops": {"list": {"s": ["Qmlhc0FkZA==", "UmVsdTY="]}}, "dilations": {"list": {"i": ["1", "1", "1", "1"]}}, "T": {"type": "DT_FLOAT"}}}, {"name": "StatefulPartitionedCall/sequential_2/keras_layer_1/StatefulPartitionedCall/StatefulPartitionedCall/StatefulPartitionedCall/predict/MobilenetV2/expanded_conv_6/depthwise/depthwise", "op": "FusedDepthwiseConv2dNative", "input": ["StatefulPartitionedCall/sequential_2/keras_layer_1/StatefulPartitionedCall/StatefulPartitionedCall/StatefulPartitionedCall/predict/MobilenetV2/expanded_conv_6/expand/Relu6", "StatefulPartitionedCall/sequential_2/keras_layer_1/StatefulPartitionedCall/StatefulPartitionedCall/StatefulPartitionedCall/predict/MobilenetV2/expanded_conv_6/depthwise/depthwise_weights", "StatefulPartitionedCall/sequential_2/keras_layer_1/StatefulPartitionedCall/StatefulPartitionedCall/StatefulPartitionedCall/predict/MobilenetV2/expanded_conv_6/depthwise/depthwise_bn_offset"], "attr": {"dilations": {"list": {"i": ["1", "1", "1", "1"]}}, "T": {"type": "DT_FLOAT"}, "data_format": {"s": "TkhXQw=="}, "strides": {"list": {"i": ["1", "2", "2", "1"]}}, "explicit_paddings": {"list": {}}, "num_args": {"i": "1"}, "padding": {"s": "U0FNRQ=="}, "fused_ops": {"list": {"s": ["Qmlhc0FkZA==", "UmVsdTY="]}}}}, {"name": "StatefulPartitionedCall/sequential_2/keras_layer_1/StatefulPartitionedCall/StatefulPartitionedCall/StatefulPartitionedCall/predict/MobilenetV2/expanded_conv_6/project/BatchNorm/FusedBatchNormV3", "op": "_FusedConv2D", "input": ["StatefulPartitionedCall/sequential_2/keras_layer_1/StatefulPartitionedCall/StatefulPartitionedCall/StatefulPartitionedCall/predict/MobilenetV2/expanded_conv_6/depthwise/depthwise", "StatefulPartitionedCall/sequential_2/keras_layer_1/StatefulPartitionedCall/StatefulPartitionedCall/StatefulPartitionedCall/predict/MobilenetV2/expanded_conv_6/project/Conv2D_weights", "StatefulPartitionedCall/sequential_2/keras_layer_1/StatefulPartitionedCall/StatefulPartitionedCall/StatefulPartitionedCall/predict/MobilenetV2/expanded_conv_6/project/Conv2D_bn_offset"], "device": "/device:CPU:0", "attr": {"dilations": {"list": {"i": ["1", "1", "1", "1"]}}, "T": {"type": "DT_FLOAT"}, "data_format": {"s": "TkhXQw=="}, "strides": {"list": {"i": ["1", "1", "1", "1"]}}, "use_cudnn_on_gpu": {"b": true}, "explicit_paddings": {"list": {}}, "num_args": {"i": "1"}, "epsilon": {"f": 0.0}, "padding": {"s": "U0FNRQ=="}, "fused_ops": {"list": {"s": ["Qmlhc0FkZA=="]}}}}, {"name": "StatefulPartitionedCall/sequential_2/keras_layer_1/StatefulPartitionedCall/StatefulPartitionedCall/StatefulPartitionedCall/predict/MobilenetV2/expanded_conv_7/expand/Relu6", "op": "_FusedConv2D", "input": ["StatefulPartitionedCall/sequential_2/keras_layer_1/StatefulPartitionedCall/StatefulPartitionedCall/StatefulPartitionedCall/predict/MobilenetV2/expanded_conv_6/project/BatchNorm/FusedBatchNormV3", "StatefulPartitionedCall/sequential_2/keras_layer_1/StatefulPartitionedCall/StatefulPartitionedCall/StatefulPartitionedCall/predict/MobilenetV2/expanded_conv_7/expand/Conv2D_weights", "StatefulPartitionedCall/sequential_2/keras_layer_1/StatefulPartitionedCall/StatefulPartitionedCall/StatefulPartitionedCall/predict/MobilenetV2/expanded_conv_7/expand/Conv2D_bn_offset"], "device": "/device:CPU:0", "attr": {"T": {"type": "DT_FLOAT"}, "strides": {"list": {"i": ["1", "1", "1", "1"]}}, "data_format": {"s": "TkhXQw=="}, "use_cudnn_on_gpu": {"b": true}, "explicit_paddings": {"list": {}}, "num_args": {"i": "1"}, "epsilon": {"f": 0.0}, "padding": {"s": "U0FNRQ=="}, "fused_ops": {"list": {"s": ["Qmlhc0FkZA==", "UmVsdTY="]}}, "dilations": {"list": {"i": ["1", "1", "1", "1"]}}}}, {"name": "StatefulPartitionedCall/sequential_2/keras_layer_1/StatefulPartitionedCall/StatefulPartitionedCall/StatefulPartitionedCall/predict/MobilenetV2/expanded_conv_7/depthwise/depthwise", "op": "FusedDepthwiseConv2dNative", "input": ["StatefulPartitionedCall/sequential_2/keras_layer_1/StatefulPartitionedCall/StatefulPartitionedCall/StatefulPartitionedCall/predict/MobilenetV2/expanded_conv_7/expand/Relu6", "StatefulPartitionedCall/sequential_2/keras_layer_1/StatefulPartitionedCall/StatefulPartitionedCall/StatefulPartitionedCall/predict/MobilenetV2/expanded_conv_7/depthwise/depthwise_weights", "StatefulPartitionedCall/sequential_2/keras_layer_1/StatefulPartitionedCall/StatefulPartitionedCall/StatefulPartitionedCall/predict/MobilenetV2/expanded_conv_7/depthwise/depthwise_bn_offset"], "attr": {"padding": {"s": "U0FNRQ=="}, "fused_ops": {"list": {"s": ["Qmlhc0FkZA==", "UmVsdTY="]}}, "dilations": {"list": {"i": ["1", "1", "1", "1"]}}, "T": {"type": "DT_FLOAT"}, "data_format": {"s": "TkhXQw=="}, "strides": {"list": {"i": ["1", "1", "1", "1"]}}, "explicit_paddings": {"list": {}}, "num_args": {"i": "1"}}}, {"name": "StatefulPartitionedCall/sequential_2/keras_layer_1/StatefulPartitionedCall/StatefulPartitionedCall/StatefulPartitionedCall/predict/MobilenetV2/expanded_conv_7/project/BatchNorm/FusedBatchNormV3", "op": "_FusedConv2D", "input": ["StatefulPartitionedCall/sequential_2/keras_layer_1/StatefulPartitionedCall/StatefulPartitionedCall/StatefulPartitionedCall/predict/MobilenetV2/expanded_conv_7/depthwise/depthwise", "StatefulPartitionedCall/sequential_2/keras_layer_1/StatefulPartitionedCall/StatefulPartitionedCall/StatefulPartitionedCall/predict/MobilenetV2/expanded_conv_7/project/Conv2D_weights", "StatefulPartitionedCall/sequential_2/keras_layer_1/StatefulPartitionedCall/StatefulPartitionedCall/StatefulPartitionedCall/predict/MobilenetV2/expanded_conv_7/project/Conv2D_bn_offset"], "device": "/device:CPU:0", "attr": {"dilations": {"list": {"i": ["1", "1", "1", "1"]}}, "T": {"type": "DT_FLOAT"}, "data_format": {"s": "TkhXQw=="}, "strides": {"list": {"i": ["1", "1", "1", "1"]}}, "explicit_paddings": {"list": {}}, "use_cudnn_on_gpu": {"b": true}, "num_args": {"i": "1"}, "epsilon": {"f": 0.0}, "padding": {"s": "U0FNRQ=="}, "fused_ops": {"list": {"s": ["Qmlhc0FkZA=="]}}}}, {"name": "StatefulPartitionedCall/sequential_2/keras_layer_1/StatefulPartitionedCall/StatefulPartitionedCall/StatefulPartitionedCall/predict/MobilenetV2/expanded_conv_7/add", "op": "AddV2", "input": ["StatefulPartitionedCall/sequential_2/keras_layer_1/StatefulPartitionedCall/StatefulPartitionedCall/StatefulPartitionedCall/predict/MobilenetV2/expanded_conv_7/project/BatchNorm/FusedBatchNormV3", "StatefulPartitionedCall/sequential_2/keras_layer_1/StatefulPartitionedCall/StatefulPartitionedCall/StatefulPartitionedCall/predict/MobilenetV2/expanded_conv_6/project/BatchNorm/FusedBatchNormV3"], "attr": {"T": {"type": "DT_FLOAT"}}}, {"name": "StatefulPartitionedCall/sequential_2/keras_layer_1/StatefulPartitionedCall/StatefulPartitionedCall/StatefulPartitionedCall/predict/MobilenetV2/expanded_conv_8/expand/Relu6", "op": "_FusedConv2D", "input": ["StatefulPartitionedCall/sequential_2/keras_layer_1/StatefulPartitionedCall/StatefulPartitionedCall/StatefulPartitionedCall/predict/MobilenetV2/expanded_conv_7/add", "StatefulPartitionedCall/sequential_2/keras_layer_1/StatefulPartitionedCall/StatefulPartitionedCall/StatefulPartitionedCall/predict/MobilenetV2/expanded_conv_8/expand/Conv2D_weights", "StatefulPartitionedCall/sequential_2/keras_layer_1/StatefulPartitionedCall/StatefulPartitionedCall/StatefulPartitionedCall/predict/MobilenetV2/expanded_conv_8/expand/Conv2D_bn_offset"], "device": "/device:CPU:0", "attr": {"fused_ops": {"list": {"s": ["Qmlhc0FkZA==", "UmVsdTY="]}}, "dilations": {"list": {"i": ["1", "1", "1", "1"]}}, "T": {"type": "DT_FLOAT"}, "data_format": {"s": "TkhXQw=="}, "strides": {"list": {"i": ["1", "1", "1", "1"]}}, "use_cudnn_on_gpu": {"b": true}, "explicit_paddings": {"list": {}}, "num_args": {"i": "1"}, "epsilon": {"f": 0.0}, "padding": {"s": "U0FNRQ=="}}}, {"name": "StatefulPartitionedCall/sequential_2/keras_layer_1/StatefulPartitionedCall/StatefulPartitionedCall/StatefulPartitionedCall/predict/MobilenetV2/expanded_conv_8/depthwise/depthwise", "op": "FusedDepthwiseConv2dNative", "input": ["StatefulPartitionedCall/sequential_2/keras_layer_1/StatefulPartitionedCall/StatefulPartitionedCall/StatefulPartitionedCall/predict/MobilenetV2/expanded_conv_8/expand/Relu6", "StatefulPartitionedCall/sequential_2/keras_layer_1/StatefulPartitionedCall/StatefulPartitionedCall/StatefulPartitionedCall/predict/MobilenetV2/expanded_conv_8/depthwise/depthwise_weights", "StatefulPartitionedCall/sequential_2/keras_layer_1/StatefulPartitionedCall/StatefulPartitionedCall/StatefulPartitionedCall/predict/MobilenetV2/expanded_conv_8/depthwise/depthwise_bn_offset"], "attr": {"data_format": {"s": "TkhXQw=="}, "strides": {"list": {"i": ["1", "1", "1", "1"]}}, "explicit_paddings": {"list": {}}, "num_args": {"i": "1"}, "padding": {"s": "U0FNRQ=="}, "fused_ops": {"list": {"s": ["Qmlhc0FkZA==", "UmVsdTY="]}}, "dilations": {"list": {"i": ["1", "1", "1", "1"]}}, "T": {"type": "DT_FLOAT"}}}, {"name": "StatefulPartitionedCall/sequential_2/keras_layer_1/StatefulPartitionedCall/StatefulPartitionedCall/StatefulPartitionedCall/predict/MobilenetV2/expanded_conv_8/project/BatchNorm/FusedBatchNormV3", "op": "_FusedConv2D", "input": ["StatefulPartitionedCall/sequential_2/keras_layer_1/StatefulPartitionedCall/StatefulPartitionedCall/StatefulPartitionedCall/predict/MobilenetV2/expanded_conv_8/depthwise/depthwise", "StatefulPartitionedCall/sequential_2/keras_layer_1/StatefulPartitionedCall/StatefulPartitionedCall/StatefulPartitionedCall/predict/MobilenetV2/expanded_conv_8/project/Conv2D_weights", "StatefulPartitionedCall/sequential_2/keras_layer_1/StatefulPartitionedCall/StatefulPartitionedCall/StatefulPartitionedCall/predict/MobilenetV2/expanded_conv_8/project/Conv2D_bn_offset"], "device": "/device:CPU:0", "attr": {"num_args": {"i": "1"}, "epsilon": {"f": 0.0}, "padding": {"s": "U0FNRQ=="}, "fused_ops": {"list": {"s": ["Qmlhc0FkZA=="]}}, "dilations": {"list": {"i": ["1", "1", "1", "1"]}}, "T": {"type": "DT_FLOAT"}, "data_format": {"s": "TkhXQw=="}, "strides": {"list": {"i": ["1", "1", "1", "1"]}}, "use_cudnn_on_gpu": {"b": true}, "explicit_paddings": {"list": {}}}}, {"name": "StatefulPartitionedCall/sequential_2/keras_layer_1/StatefulPartitionedCall/StatefulPartitionedCall/StatefulPartitionedCall/predict/MobilenetV2/expanded_conv_8/add", "op": "AddV2", "input": ["StatefulPartitionedCall/sequential_2/keras_layer_1/StatefulPartitionedCall/StatefulPartitionedCall/StatefulPartitionedCall/predict/MobilenetV2/expanded_conv_8/project/BatchNorm/FusedBatchNormV3", "StatefulPartitionedCall/sequential_2/keras_layer_1/StatefulPartitionedCall/StatefulPartitionedCall/StatefulPartitionedCall/predict/MobilenetV2/expanded_conv_7/add"], "attr": {"T": {"type": "DT_FLOAT"}}}, {"name": "StatefulPartitionedCall/sequential_2/keras_layer_1/StatefulPartitionedCall/StatefulPartitionedCall/StatefulPartitionedCall/predict/MobilenetV2/expanded_conv_9/expand/Relu6", "op": "_FusedConv2D", "input": ["StatefulPartitionedCall/sequential_2/keras_layer_1/StatefulPartitionedCall/StatefulPartitionedCall/StatefulPartitionedCall/predict/MobilenetV2/expanded_conv_8/add", "StatefulPartitionedCall/sequential_2/keras_layer_1/StatefulPartitionedCall/StatefulPartitionedCall/StatefulPartitionedCall/predict/MobilenetV2/expanded_conv_9/expand/Conv2D_weights", "StatefulPartitionedCall/sequential_2/keras_layer_1/StatefulPartitionedCall/StatefulPartitionedCall/StatefulPartitionedCall/predict/MobilenetV2/expanded_conv_9/expand/Conv2D_bn_offset"], "device": "/device:CPU:0", "attr": {"dilations": {"list": {"i": ["1", "1", "1", "1"]}}, "T": {"type": "DT_FLOAT"}, "data_format": {"s": "TkhXQw=="}, "strides": {"list": {"i": ["1", "1", "1", "1"]}}, "use_cudnn_on_gpu": {"b": true}, "explicit_paddings": {"list": {}}, "num_args": {"i": "1"}, "epsilon": {"f": 0.0}, "padding": {"s": "U0FNRQ=="}, "fused_ops": {"list": {"s": ["Qmlhc0FkZA==", "UmVsdTY="]}}}}, {"name": "StatefulPartitionedCall/sequential_2/keras_layer_1/StatefulPartitionedCall/StatefulPartitionedCall/StatefulPartitionedCall/predict/MobilenetV2/expanded_conv_9/depthwise/depthwise", "op": "FusedDepthwiseConv2dNative", "input": ["StatefulPartitionedCall/sequential_2/keras_layer_1/StatefulPartitionedCall/StatefulPartitionedCall/StatefulPartitionedCall/predict/MobilenetV2/expanded_conv_9/expand/Relu6", "StatefulPartitionedCall/sequential_2/keras_layer_1/StatefulPartitionedCall/StatefulPartitionedCall/StatefulPartitionedCall/predict/MobilenetV2/expanded_conv_9/depthwise/depthwise_weights", "StatefulPartitionedCall/sequential_2/keras_layer_1/StatefulPartitionedCall/StatefulPartitionedCall/StatefulPartitionedCall/predict/MobilenetV2/expanded_conv_9/depthwise/depthwise_bn_offset"], "attr": {"padding": {"s": "U0FNRQ=="}, "fused_ops": {"list": {"s": ["Qmlhc0FkZA==", "UmVsdTY="]}}, "dilations": {"list": {"i": ["1", "1", "1", "1"]}}, "T": {"type": "DT_FLOAT"}, "strides": {"list": {"i": ["1", "1", "1", "1"]}}, "data_format": {"s": "TkhXQw=="}, "explicit_paddings": {"list": {}}, "num_args": {"i": "1"}}}, {"name": "StatefulPartitionedCall/sequential_2/keras_layer_1/StatefulPartitionedCall/StatefulPartitionedCall/StatefulPartitionedCall/predict/MobilenetV2/expanded_conv_9/project/BatchNorm/FusedBatchNormV3", "op": "_FusedConv2D", "input": ["StatefulPartitionedCall/sequential_2/keras_layer_1/StatefulPartitionedCall/StatefulPartitionedCall/StatefulPartitionedCall/predict/MobilenetV2/expanded_conv_9/depthwise/depthwise", "StatefulPartitionedCall/sequential_2/keras_layer_1/StatefulPartitionedCall/StatefulPartitionedCall/StatefulPartitionedCall/predict/MobilenetV2/expanded_conv_9/project/Conv2D_weights", "StatefulPartitionedCall/sequential_2/keras_layer_1/StatefulPartitionedCall/StatefulPartitionedCall/StatefulPartitionedCall/predict/MobilenetV2/expanded_conv_9/project/Conv2D_bn_offset"], "device": "/device:CPU:0", "attr": {"fused_ops": {"list": {"s": ["Qmlhc0FkZA=="]}}, "dilations": {"list": {"i": ["1", "1", "1", "1"]}}, "T": {"type": "DT_FLOAT"}, "data_format": {"s": "TkhXQw=="}, "strides": {"list": {"i": ["1", "1", "1", "1"]}}, "use_cudnn_on_gpu": {"b": true}, "explicit_paddings": {"list": {}}, "num_args": {"i": "1"}, "epsilon": {"f": 0.0}, "padding": {"s": "U0FNRQ=="}}}, {"name": "StatefulPartitionedCall/sequential_2/keras_layer_1/StatefulPartitionedCall/StatefulPartitionedCall/StatefulPartitionedCall/predict/MobilenetV2/expanded_conv_9/add", "op": "AddV2", "input": ["StatefulPartitionedCall/sequential_2/keras_layer_1/StatefulPartitionedCall/StatefulPartitionedCall/StatefulPartitionedCall/predict/MobilenetV2/expanded_conv_9/project/BatchNorm/FusedBatchNormV3", "StatefulPartitionedCall/sequential_2/keras_layer_1/StatefulPartitionedCall/StatefulPartitionedCall/StatefulPartitionedCall/predict/MobilenetV2/expanded_conv_8/add"], "attr": {"T": {"type": "DT_FLOAT"}}}, {"name": "StatefulPartitionedCall/sequential_2/keras_layer_1/StatefulPartitionedCall/StatefulPartitionedCall/StatefulPartitionedCall/predict/MobilenetV2/expanded_conv_10/expand/Relu6", "op": "_FusedConv2D", "input": ["StatefulPartitionedCall/sequential_2/keras_layer_1/StatefulPartitionedCall/StatefulPartitionedCall/StatefulPartitionedCall/predict/MobilenetV2/expanded_conv_9/add", "StatefulPartitionedCall/sequential_2/keras_layer_1/StatefulPartitionedCall/StatefulPartitionedCall/StatefulPartitionedCall/predict/MobilenetV2/expanded_conv_10/expand/Conv2D_weights", "StatefulPartitionedCall/sequential_2/keras_layer_1/StatefulPartitionedCall/StatefulPartitionedCall/StatefulPartitionedCall/predict/MobilenetV2/expanded_conv_10/expand/Conv2D_bn_offset"], "device": "/device:CPU:0", "attr": {"dilations": {"list": {"i": ["1", "1", "1", "1"]}}, "T": {"type": "DT_FLOAT"}, "strides": {"list": {"i": ["1", "1", "1", "1"]}}, "data_format": {"s": "TkhXQw=="}, "use_cudnn_on_gpu": {"b": true}, "explicit_paddings": {"list": {}}, "num_args": {"i": "1"}, "epsilon": {"f": 0.0}, "padding": {"s": "U0FNRQ=="}, "fused_ops": {"list": {"s": ["Qmlhc0FkZA==", "UmVsdTY="]}}}}, {"name": "StatefulPartitionedCall/sequential_2/keras_layer_1/StatefulPartitionedCall/StatefulPartitionedCall/StatefulPartitionedCall/predict/MobilenetV2/expanded_conv_10/depthwise/depthwise", "op": "FusedDepthwiseConv2dNative", "input": ["StatefulPartitionedCall/sequential_2/keras_layer_1/StatefulPartitionedCall/StatefulPartitionedCall/StatefulPartitionedCall/predict/MobilenetV2/expanded_conv_10/expand/Relu6", "StatefulPartitionedCall/sequential_2/keras_layer_1/StatefulPartitionedCall/StatefulPartitionedCall/StatefulPartitionedCall/predict/MobilenetV2/expanded_conv_10/depthwise/depthwise_weights", "StatefulPartitionedCall/sequential_2/keras_layer_1/StatefulPartitionedCall/StatefulPartitionedCall/StatefulPartitionedCall/predict/MobilenetV2/expanded_conv_10/depthwise/depthwise_bn_offset"], "attr": {"strides": {"list": {"i": ["1", "1", "1", "1"]}}, "data_format": {"s": "TkhXQw=="}, "explicit_paddings": {"list": {}}, "num_args": {"i": "1"}, "padding": {"s": "U0FNRQ=="}, "fused_ops": {"list": {"s": ["Qmlhc0FkZA==", "UmVsdTY="]}}, "dilations": {"list": {"i": ["1", "1", "1", "1"]}}, "T": {"type": "DT_FLOAT"}}}, {"name": "StatefulPartitionedCall/sequential_2/keras_layer_1/StatefulPartitionedCall/StatefulPartitionedCall/StatefulPartitionedCall/predict/MobilenetV2/expanded_conv_10/project/BatchNorm/FusedBatchNormV3", "op": "_FusedConv2D", "input": ["StatefulPartitionedCall/sequential_2/keras_layer_1/StatefulPartitionedCall/StatefulPartitionedCall/StatefulPartitionedCall/predict/MobilenetV2/expanded_conv_10/depthwise/depthwise", "StatefulPartitionedCall/sequential_2/keras_layer_1/StatefulPartitionedCall/StatefulPartitionedCall/StatefulPartitionedCall/predict/MobilenetV2/expanded_conv_10/project/Conv2D_weights", "StatefulPartitionedCall/sequential_2/keras_layer_1/StatefulPartitionedCall/StatefulPartitionedCall/StatefulPartitionedCall/predict/MobilenetV2/expanded_conv_10/project/Conv2D_bn_offset"], "device": "/device:CPU:0", "attr": {"strides": {"list": {"i": ["1", "1", "1", "1"]}}, "data_format": {"s": "TkhXQw=="}, "use_cudnn_on_gpu": {"b": true}, "explicit_paddings": {"list": {}}, "num_args": {"i": "1"}, "epsilon": {"f": 0.0}, "padding": {"s": "U0FNRQ=="}, "fused_ops": {"list": {"s": ["Qmlhc0FkZA=="]}}, "dilations": {"list": {"i": ["1", "1", "1", "1"]}}, "T": {"type": "DT_FLOAT"}}}, {"name": "StatefulPartitionedCall/sequential_2/keras_layer_1/StatefulPartitionedCall/StatefulPartitionedCall/StatefulPartitionedCall/predict/MobilenetV2/expanded_conv_11/expand/Relu6", "op": "_FusedConv2D", "input": ["StatefulPartitionedCall/sequential_2/keras_layer_1/StatefulPartitionedCall/StatefulPartitionedCall/StatefulPartitionedCall/predict/MobilenetV2/expanded_conv_10/project/BatchNorm/FusedBatchNormV3", "StatefulPartitionedCall/sequential_2/keras_layer_1/StatefulPartitionedCall/StatefulPartitionedCall/StatefulPartitionedCall/predict/MobilenetV2/expanded_conv_11/expand/Conv2D_weights", "StatefulPartitionedCall/sequential_2/keras_layer_1/StatefulPartitionedCall/StatefulPartitionedCall/StatefulPartitionedCall/predict/MobilenetV2/expanded_conv_11/expand/Conv2D_bn_offset"], "device": "/device:CPU:0", "attr": {"num_args": {"i": "1"}, "epsilon": {"f": 0.0}, "padding": {"s": "U0FNRQ=="}, "fused_ops": {"list": {"s": ["Qmlhc0FkZA==", "UmVsdTY="]}}, "dilations": {"list": {"i": ["1", "1", "1", "1"]}}, "T": {"type": "DT_FLOAT"}, "data_format": {"s": "TkhXQw=="}, "strides": {"list": {"i": ["1", "1", "1", "1"]}}, "use_cudnn_on_gpu": {"b": true}, "explicit_paddings": {"list": {}}}}, {"name": "StatefulPartitionedCall/sequential_2/keras_layer_1/StatefulPartitionedCall/StatefulPartitionedCall/StatefulPartitionedCall/predict/MobilenetV2/expanded_conv_11/depthwise/depthwise", "op": "FusedDepthwiseConv2dNative", "input": ["StatefulPartitionedCall/sequential_2/keras_layer_1/StatefulPartitionedCall/StatefulPartitionedCall/StatefulPartitionedCall/predict/MobilenetV2/expanded_conv_11/expand/Relu6", "StatefulPartitionedCall/sequential_2/keras_layer_1/StatefulPartitionedCall/StatefulPartitionedCall/StatefulPartitionedCall/predict/MobilenetV2/expanded_conv_11/depthwise/depthwise_weights", "StatefulPartitionedCall/sequential_2/keras_layer_1/StatefulPartitionedCall/StatefulPartitionedCall/StatefulPartitionedCall/predict/MobilenetV2/expanded_conv_11/depthwise/depthwise_bn_offset"], "attr": {"dilations": {"list": {"i": ["1", "1", "1", "1"]}}, "T": {"type": "DT_FLOAT"}, "data_format": {"s": "TkhXQw=="}, "strides": {"list": {"i": ["1", "1", "1", "1"]}}, "explicit_paddings": {"list": {}}, "num_args": {"i": "1"}, "padding": {"s": "U0FNRQ=="}, "fused_ops": {"list": {"s": ["Qmlhc0FkZA==", "UmVsdTY="]}}}}, {"name": "StatefulPartitionedCall/sequential_2/keras_layer_1/StatefulPartitionedCall/StatefulPartitionedCall/StatefulPartitionedCall/predict/MobilenetV2/expanded_conv_11/project/BatchNorm/FusedBatchNormV3", "op": "_FusedConv2D", "input": ["StatefulPartitionedCall/sequential_2/keras_layer_1/StatefulPartitionedCall/StatefulPartitionedCall/StatefulPartitionedCall/predict/MobilenetV2/expanded_conv_11/depthwise/depthwise", "StatefulPartitionedCall/sequential_2/keras_layer_1/StatefulPartitionedCall/StatefulPartitionedCall/StatefulPartitionedCall/predict/MobilenetV2/expanded_conv_11/project/Conv2D_weights", "StatefulPartitionedCall/sequential_2/keras_layer_1/StatefulPartitionedCall/StatefulPartitionedCall/StatefulPartitionedCall/predict/MobilenetV2/expanded_conv_11/project/Conv2D_bn_offset"], "device": "/device:CPU:0", "attr": {"fused_ops": {"list": {"s": ["Qmlhc0FkZA=="]}}, "dilations": {"list": {"i": ["1", "1", "1", "1"]}}, "T": {"type": "DT_FLOAT"}, "strides": {"list": {"i": ["1", "1", "1", "1"]}}, "data_format": {"s": "TkhXQw=="}, "use_cudnn_on_gpu": {"b": true}, "explicit_paddings": {"list": {}}, "num_args": {"i": "1"}, "epsilon": {"f": 0.0}, "padding": {"s": "U0FNRQ=="}}}, {"name": "StatefulPartitionedCall/sequential_2/keras_layer_1/StatefulPartitionedCall/StatefulPartitionedCall/StatefulPartitionedCall/predict/MobilenetV2/expanded_conv_11/add", "op": "AddV2", "input": ["StatefulPartitionedCall/sequential_2/keras_layer_1/StatefulPartitionedCall/StatefulPartitionedCall/StatefulPartitionedCall/predict/MobilenetV2/expanded_conv_11/project/BatchNorm/FusedBatchNormV3", "StatefulPartitionedCall/sequential_2/keras_layer_1/StatefulPartitionedCall/StatefulPartitionedCall/StatefulPartitionedCall/predict/MobilenetV2/expanded_conv_10/project/BatchNorm/FusedBatchNormV3"], "attr": {"T": {"type": "DT_FLOAT"}}}, {"name": "StatefulPartitionedCall/sequential_2/keras_layer_1/StatefulPartitionedCall/StatefulPartitionedCall/StatefulPartitionedCall/predict/MobilenetV2/expanded_conv_12/expand/Relu6", "op": "_FusedConv2D", "input": ["StatefulPartitionedCall/sequential_2/keras_layer_1/StatefulPartitionedCall/StatefulPartitionedCall/StatefulPartitionedCall/predict/MobilenetV2/expanded_conv_11/add", "StatefulPartitionedCall/sequential_2/keras_layer_1/StatefulPartitionedCall/StatefulPartitionedCall/StatefulPartitionedCall/predict/MobilenetV2/expanded_conv_12/expand/Conv2D_weights", "StatefulPartitionedCall/sequential_2/keras_layer_1/StatefulPartitionedCall/StatefulPartitionedCall/StatefulPartitionedCall/predict/MobilenetV2/expanded_conv_12/expand/Conv2D_bn_offset"], "device": "/device:CPU:0", "attr": {"num_args": {"i": "1"}, "epsilon": {"f": 0.0}, "padding": {"s": "U0FNRQ=="}, "fused_ops": {"list": {"s": ["Qmlhc0FkZA==", "UmVsdTY="]}}, "dilations": {"list": {"i": ["1", "1", "1", "1"]}}, "T": {"type": "DT_FLOAT"}, "strides": {"list": {"i": ["1", "1", "1", "1"]}}, "data_format": {"s": "TkhXQw=="}, "use_cudnn_on_gpu": {"b": true}, "explicit_paddings": {"list": {}}}}, {"name": "StatefulPartitionedCall/sequential_2/keras_layer_1/StatefulPartitionedCall/StatefulPartitionedCall/StatefulPartitionedCall/predict/MobilenetV2/expanded_conv_12/depthwise/depthwise", "op": "FusedDepthwiseConv2dNative", "input": ["StatefulPartitionedCall/sequential_2/keras_layer_1/StatefulPartitionedCall/StatefulPartitionedCall/StatefulPartitionedCall/predict/MobilenetV2/expanded_conv_12/expand/Relu6", "StatefulPartitionedCall/sequential_2/keras_layer_1/StatefulPartitionedCall/StatefulPartitionedCall/StatefulPartitionedCall/predict/MobilenetV2/expanded_conv_12/depthwise/depthwise_weights", "StatefulPartitionedCall/sequential_2/keras_layer_1/StatefulPartitionedCall/StatefulPartitionedCall/StatefulPartitionedCall/predict/MobilenetV2/expanded_conv_12/depthwise/depthwise_bn_offset"], "attr": {"dilations": {"list": {"i": ["1", "1", "1", "1"]}}, "T": {"type": "DT_FLOAT"}, "strides": {"list": {"i": ["1", "1", "1", "1"]}}, "data_format": {"s": "TkhXQw=="}, "explicit_paddings": {"list": {}}, "num_args": {"i": "1"}, "padding": {"s": "U0FNRQ=="}, "fused_ops": {"list": {"s": ["Qmlhc0FkZA==", "UmVsdTY="]}}}}, {"name": "StatefulPartitionedCall/sequential_2/keras_layer_1/StatefulPartitionedCall/StatefulPartitionedCall/StatefulPartitionedCall/predict/MobilenetV2/expanded_conv_12/project/BatchNorm/FusedBatchNormV3", "op": "_FusedConv2D", "input": ["StatefulPartitionedCall/sequential_2/keras_layer_1/StatefulPartitionedCall/StatefulPartitionedCall/StatefulPartitionedCall/predict/MobilenetV2/expanded_conv_12/depthwise/depthwise", "StatefulPartitionedCall/sequential_2/keras_layer_1/StatefulPartitionedCall/StatefulPartitionedCall/StatefulPartitionedCall/predict/MobilenetV2/expanded_conv_12/project/Conv2D_weights", "StatefulPartitionedCall/sequential_2/keras_layer_1/StatefulPartitionedCall/StatefulPartitionedCall/StatefulPartitionedCall/predict/MobilenetV2/expanded_conv_12/project/Conv2D_bn_offset"], "device": "/device:CPU:0", "attr": {"strides": {"list": {"i": ["1", "1", "1", "1"]}}, "data_format": {"s": "TkhXQw=="}, "explicit_paddings": {"list": {}}, "use_cudnn_on_gpu": {"b": true}, "num_args": {"i": "1"}, "epsilon": {"f": 0.0}, "padding": {"s": "U0FNRQ=="}, "fused_ops": {"list": {"s": ["Qmlhc0FkZA=="]}}, "dilations": {"list": {"i": ["1", "1", "1", "1"]}}, "T": {"type": "DT_FLOAT"}}}, {"name": "StatefulPartitionedCall/sequential_2/keras_layer_1/StatefulPartitionedCall/StatefulPartitionedCall/StatefulPartitionedCall/predict/MobilenetV2/expanded_conv_12/add", "op": "AddV2", "input": ["StatefulPartitionedCall/sequential_2/keras_layer_1/StatefulPartitionedCall/StatefulPartitionedCall/StatefulPartitionedCall/predict/MobilenetV2/expanded_conv_12/project/BatchNorm/FusedBatchNormV3", "StatefulPartitionedCall/sequential_2/keras_layer_1/StatefulPartitionedCall/StatefulPartitionedCall/StatefulPartitionedCall/predict/MobilenetV2/expanded_conv_11/add"], "attr": {"T": {"type": "DT_FLOAT"}}}, {"name": "StatefulPartitionedCall/sequential_2/keras_layer_1/StatefulPartitionedCall/StatefulPartitionedCall/StatefulPartitionedCall/predict/MobilenetV2/expanded_conv_13/expand/Relu6", "op": "_FusedConv2D", "input": ["StatefulPartitionedCall/sequential_2/keras_layer_1/StatefulPartitionedCall/StatefulPartitionedCall/StatefulPartitionedCall/predict/MobilenetV2/expanded_conv_12/add", "StatefulPartitionedCall/sequential_2/keras_layer_1/StatefulPartitionedCall/StatefulPartitionedCall/StatefulPartitionedCall/predict/MobilenetV2/expanded_conv_13/expand/Conv2D_weights", "StatefulPartitionedCall/sequential_2/keras_layer_1/StatefulPartitionedCall/StatefulPartitionedCall/StatefulPartitionedCall/predict/MobilenetV2/expanded_conv_13/expand/Conv2D_bn_offset"], "device": "/device:CPU:0", "attr": {"num_args": {"i": "1"}, "epsilon": {"f": 0.0}, "padding": {"s": "U0FNRQ=="}, "fused_ops": {"list": {"s": ["Qmlhc0FkZA==", "UmVsdTY="]}}, "dilations": {"list": {"i": ["1", "1", "1", "1"]}}, "T": {"type": "DT_FLOAT"}, "data_format": {"s": "TkhXQw=="}, "strides": {"list": {"i": ["1", "1", "1", "1"]}}, "explicit_paddings": {"list": {}}, "use_cudnn_on_gpu": {"b": true}}}, {"name": "StatefulPartitionedCall/sequential_2/keras_layer_1/StatefulPartitionedCall/StatefulPartitionedCall/StatefulPartitionedCall/predict/MobilenetV2/expanded_conv_13/depthwise/depthwise", "op": "FusedDepthwiseConv2dNative", "input": ["StatefulPartitionedCall/sequential_2/keras_layer_1/StatefulPartitionedCall/StatefulPartitionedCall/StatefulPartitionedCall/predict/MobilenetV2/expanded_conv_13/expand/Relu6", "StatefulPartitionedCall/sequential_2/keras_layer_1/StatefulPartitionedCall/StatefulPartitionedCall/StatefulPartitionedCall/predict/MobilenetV2/expanded_conv_13/depthwise/depthwise_weights", "StatefulPartitionedCall/sequential_2/keras_layer_1/StatefulPartitionedCall/StatefulPartitionedCall/StatefulPartitionedCall/predict/MobilenetV2/expanded_conv_13/depthwise/depthwise_bn_offset"], "attr": {"dilations": {"list": {"i": ["1", "1", "1", "1"]}}, "T": {"type": "DT_FLOAT"}, "data_format": {"s": "TkhXQw=="}, "strides": {"list": {"i": ["1", "2", "2", "1"]}}, "explicit_paddings": {"list": {}}, "num_args": {"i": "1"}, "padding": {"s": "U0FNRQ=="}, "fused_ops": {"list": {"s": ["Qmlhc0FkZA==", "UmVsdTY="]}}}}, {"name": "StatefulPartitionedCall/sequential_2/keras_layer_1/StatefulPartitionedCall/StatefulPartitionedCall/StatefulPartitionedCall/predict/MobilenetV2/expanded_conv_13/project/BatchNorm/FusedBatchNormV3", "op": "_FusedConv2D", "input": ["StatefulPartitionedCall/sequential_2/keras_layer_1/StatefulPartitionedCall/StatefulPartitionedCall/StatefulPartitionedCall/predict/MobilenetV2/expanded_conv_13/depthwise/depthwise", "StatefulPartitionedCall/sequential_2/keras_layer_1/StatefulPartitionedCall/StatefulPartitionedCall/StatefulPartitionedCall/predict/MobilenetV2/expanded_conv_13/project/Conv2D_weights", "StatefulPartitionedCall/sequential_2/keras_layer_1/StatefulPartitionedCall/StatefulPartitionedCall/StatefulPartitionedCall/predict/MobilenetV2/expanded_conv_13/project/Conv2D_bn_offset"], "device": "/device:CPU:0", "attr": {"dilations": {"list": {"i": ["1", "1", "1", "1"]}}, "T": {"type": "DT_FLOAT"}, "strides": {"list": {"i": ["1", "1", "1", "1"]}}, "data_format": {"s": "TkhXQw=="}, "explicit_paddings": {"list": {}}, "use_cudnn_on_gpu": {"b": true}, "num_args": {"i": "1"}, "epsilon": {"f": 0.0}, "padding": {"s": "U0FNRQ=="}, "fused_ops": {"list": {"s": ["Qmlhc0FkZA=="]}}}}, {"name": "StatefulPartitionedCall/sequential_2/keras_layer_1/StatefulPartitionedCall/StatefulPartitionedCall/StatefulPartitionedCall/predict/MobilenetV2/expanded_conv_14/expand/Relu6", "op": "_FusedConv2D", "input": ["StatefulPartitionedCall/sequential_2/keras_layer_1/StatefulPartitionedCall/StatefulPartitionedCall/StatefulPartitionedCall/predict/MobilenetV2/expanded_conv_13/project/BatchNorm/FusedBatchNormV3", "StatefulPartitionedCall/sequential_2/keras_layer_1/StatefulPartitionedCall/StatefulPartitionedCall/StatefulPartitionedCall/predict/MobilenetV2/expanded_conv_14/expand/Conv2D_weights", "StatefulPartitionedCall/sequential_2/keras_layer_1/StatefulPartitionedCall/StatefulPartitionedCall/StatefulPartitionedCall/predict/MobilenetV2/expanded_conv_14/expand/Conv2D_bn_offset"], "device": "/device:CPU:0", "attr": {"dilations": {"list": {"i": ["1", "1", "1", "1"]}}, "T": {"type": "DT_FLOAT"}, "data_format": {"s": "TkhXQw=="}, "strides": {"list": {"i": ["1", "1", "1", "1"]}}, "use_cudnn_on_gpu": {"b": true}, "explicit_paddings": {"list": {}}, "num_args": {"i": "1"}, "epsilon": {"f": 0.0}, "padding": {"s": "U0FNRQ=="}, "fused_ops": {"list": {"s": ["Qmlhc0FkZA==", "UmVsdTY="]}}}}, {"name": "StatefulPartitionedCall/sequential_2/keras_layer_1/StatefulPartitionedCall/StatefulPartitionedCall/StatefulPartitionedCall/predict/MobilenetV2/expanded_conv_14/depthwise/depthwise", "op": "FusedDepthwiseConv2dNative", "input": ["StatefulPartitionedCall/sequential_2/keras_layer_1/StatefulPartitionedCall/StatefulPartitionedCall/StatefulPartitionedCall/predict/MobilenetV2/expanded_conv_14/expand/Relu6", "StatefulPartitionedCall/sequential_2/keras_layer_1/StatefulPartitionedCall/StatefulPartitionedCall/StatefulPartitionedCall/predict/MobilenetV2/expanded_conv_14/depthwise/depthwise_weights", "StatefulPartitionedCall/sequential_2/keras_layer_1/StatefulPartitionedCall/StatefulPartitionedCall/StatefulPartitionedCall/predict/MobilenetV2/expanded_conv_14/depthwise/depthwise_bn_offset"], "attr": {"num_args": {"i": "1"}, "padding": {"s": "U0FNRQ=="}, "fused_ops": {"list": {"s": ["Qmlhc0FkZA==", "UmVsdTY="]}}, "dilations": {"list": {"i": ["1", "1", "1", "1"]}}, "T": {"type": "DT_FLOAT"}, "strides": {"list": {"i": ["1", "1", "1", "1"]}}, "data_format": {"s": "TkhXQw=="}, "explicit_paddings": {"list": {}}}}, {"name": "StatefulPartitionedCall/sequential_2/keras_layer_1/StatefulPartitionedCall/StatefulPartitionedCall/StatefulPartitionedCall/predict/MobilenetV2/expanded_conv_14/project/BatchNorm/FusedBatchNormV3", "op": "_FusedConv2D", "input": ["StatefulPartitionedCall/sequential_2/keras_layer_1/StatefulPartitionedCall/StatefulPartitionedCall/StatefulPartitionedCall/predict/MobilenetV2/expanded_conv_14/depthwise/depthwise", "StatefulPartitionedCall/sequential_2/keras_layer_1/StatefulPartitionedCall/StatefulPartitionedCall/StatefulPartitionedCall/predict/MobilenetV2/expanded_conv_14/project/Conv2D_weights", "StatefulPartitionedCall/sequential_2/keras_layer_1/StatefulPartitionedCall/StatefulPartitionedCall/StatefulPartitionedCall/predict/MobilenetV2/expanded_conv_14/project/Conv2D_bn_offset"], "device": "/device:CPU:0", "attr": {"num_args": {"i": "1"}, "epsilon": {"f": 0.0}, "padding": {"s": "U0FNRQ=="}, "fused_ops": {"list": {"s": ["Qmlhc0FkZA=="]}}, "dilations": {"list": {"i": ["1", "1", "1", "1"]}}, "T": {"type": "DT_FLOAT"}, "strides": {"list": {"i": ["1", "1", "1", "1"]}}, "data_format": {"s": "TkhXQw=="}, "use_cudnn_on_gpu": {"b": true}, "explicit_paddings": {"list": {}}}}, {"name": "StatefulPartitionedCall/sequential_2/keras_layer_1/StatefulPartitionedCall/StatefulPartitionedCall/StatefulPartitionedCall/predict/MobilenetV2/expanded_conv_14/add", "op": "AddV2", "input": ["StatefulPartitionedCall/sequential_2/keras_layer_1/StatefulPartitionedCall/StatefulPartitionedCall/StatefulPartitionedCall/predict/MobilenetV2/expanded_conv_14/project/BatchNorm/FusedBatchNormV3", "StatefulPartitionedCall/sequential_2/keras_layer_1/StatefulPartitionedCall/StatefulPartitionedCall/StatefulPartitionedCall/predict/MobilenetV2/expanded_conv_13/project/BatchNorm/FusedBatchNormV3"], "attr": {"T": {"type": "DT_FLOAT"}}}, {"name": "StatefulPartitionedCall/sequential_2/keras_layer_1/StatefulPartitionedCall/StatefulPartitionedCall/StatefulPartitionedCall/predict/MobilenetV2/expanded_conv_15/expand/Relu6", "op": "_FusedConv2D", "input": ["StatefulPartitionedCall/sequential_2/keras_layer_1/StatefulPartitionedCall/StatefulPartitionedCall/StatefulPartitionedCall/predict/MobilenetV2/expanded_conv_14/add", "StatefulPartitionedCall/sequential_2/keras_layer_1/StatefulPartitionedCall/StatefulPartitionedCall/StatefulPartitionedCall/predict/MobilenetV2/expanded_conv_15/expand/Conv2D_weights", "StatefulPartitionedCall/sequential_2/keras_layer_1/StatefulPartitionedCall/StatefulPartitionedCall/StatefulPartitionedCall/predict/MobilenetV2/expanded_conv_15/expand/Conv2D_bn_offset"], "device": "/device:CPU:0", "attr": {"num_args": {"i": "1"}, "epsilon": {"f": 0.0}, "padding": {"s": "U0FNRQ=="}, "fused_ops": {"list": {"s": ["Qmlhc0FkZA==", "UmVsdTY="]}}, "dilations": {"list": {"i": ["1", "1", "1", "1"]}}, "T": {"type": "DT_FLOAT"}, "strides": {"list": {"i": ["1", "1", "1", "1"]}}, "data_format": {"s": "TkhXQw=="}, "explicit_paddings": {"list": {}}, "use_cudnn_on_gpu": {"b": true}}}, {"name": "StatefulPartitionedCall/sequential_2/keras_layer_1/StatefulPartitionedCall/StatefulPartitionedCall/StatefulPartitionedCall/predict/MobilenetV2/expanded_conv_15/depthwise/depthwise", "op": "FusedDepthwiseConv2dNative", "input": ["StatefulPartitionedCall/sequential_2/keras_layer_1/StatefulPartitionedCall/StatefulPartitionedCall/StatefulPartitionedCall/predict/MobilenetV2/expanded_conv_15/expand/Relu6", "StatefulPartitionedCall/sequential_2/keras_layer_1/StatefulPartitionedCall/StatefulPartitionedCall/StatefulPartitionedCall/predict/MobilenetV2/expanded_conv_15/depthwise/depthwise_weights", "StatefulPartitionedCall/sequential_2/keras_layer_1/StatefulPartitionedCall/StatefulPartitionedCall/StatefulPartitionedCall/predict/MobilenetV2/expanded_conv_15/depthwise/depthwise_bn_offset"], "attr": {"dilations": {"list": {"i": ["1", "1", "1", "1"]}}, "T": {"type": "DT_FLOAT"}, "strides": {"list": {"i": ["1", "1", "1", "1"]}}, "data_format": {"s": "TkhXQw=="}, "explicit_paddings": {"list": {}}, "num_args": {"i": "1"}, "padding": {"s": "U0FNRQ=="}, "fused_ops": {"list": {"s": ["Qmlhc0FkZA==", "UmVsdTY="]}}}}, {"name": "StatefulPartitionedCall/sequential_2/keras_layer_1/StatefulPartitionedCall/StatefulPartitionedCall/StatefulPartitionedCall/predict/MobilenetV2/expanded_conv_15/project/BatchNorm/FusedBatchNormV3", "op": "_FusedConv2D", "input": ["StatefulPartitionedCall/sequential_2/keras_layer_1/StatefulPartitionedCall/StatefulPartitionedCall/StatefulPartitionedCall/predict/MobilenetV2/expanded_conv_15/depthwise/depthwise", "StatefulPartitionedCall/sequential_2/keras_layer_1/StatefulPartitionedCall/StatefulPartitionedCall/StatefulPartitionedCall/predict/MobilenetV2/expanded_conv_15/project/Conv2D_weights", "StatefulPartitionedCall/sequential_2/keras_layer_1/StatefulPartitionedCall/StatefulPartitionedCall/StatefulPartitionedCall/predict/MobilenetV2/expanded_conv_15/project/Conv2D_bn_offset"], "device": "/device:CPU:0", "attr": {"num_args": {"i": "1"}, "epsilon": {"f": 0.0}, "padding": {"s": "U0FNRQ=="}, "fused_ops": {"list": {"s": ["Qmlhc0FkZA=="]}}, "dilations": {"list": {"i": ["1", "1", "1", "1"]}}, "T": {"type": "DT_FLOAT"}, "data_format": {"s": "TkhXQw=="}, "strides": {"list": {"i": ["1", "1", "1", "1"]}}, "use_cudnn_on_gpu": {"b": true}, "explicit_paddings": {"list": {}}}}, {"name": "StatefulPartitionedCall/sequential_2/keras_layer_1/StatefulPartitionedCall/StatefulPartitionedCall/StatefulPartitionedCall/predict/MobilenetV2/expanded_conv_15/add", "op": "AddV2", "input": ["StatefulPartitionedCall/sequential_2/keras_layer_1/StatefulPartitionedCall/StatefulPartitionedCall/StatefulPartitionedCall/predict/MobilenetV2/expanded_conv_15/project/BatchNorm/FusedBatchNormV3", "StatefulPartitionedCall/sequential_2/keras_layer_1/StatefulPartitionedCall/StatefulPartitionedCall/StatefulPartitionedCall/predict/MobilenetV2/expanded_conv_14/add"], "attr": {"T": {"type": "DT_FLOAT"}}}, {"name": "StatefulPartitionedCall/sequential_2/keras_layer_1/StatefulPartitionedCall/StatefulPartitionedCall/StatefulPartitionedCall/predict/MobilenetV2/expanded_conv_16/expand/Relu6", "op": "_FusedConv2D", "input": ["StatefulPartitionedCall/sequential_2/keras_layer_1/StatefulPartitionedCall/StatefulPartitionedCall/StatefulPartitionedCall/predict/MobilenetV2/expanded_conv_15/add", "StatefulPartitionedCall/sequential_2/keras_layer_1/StatefulPartitionedCall/StatefulPartitionedCall/StatefulPartitionedCall/predict/MobilenetV2/expanded_conv_16/expand/Conv2D_weights", "StatefulPartitionedCall/sequential_2/keras_layer_1/StatefulPartitionedCall/StatefulPartitionedCall/StatefulPartitionedCall/predict/MobilenetV2/expanded_conv_16/expand/Conv2D_bn_offset"], "device": "/device:CPU:0", "attr": {"data_format": {"s": "TkhXQw=="}, "strides": {"list": {"i": ["1", "1", "1", "1"]}}, "use_cudnn_on_gpu": {"b": true}, "explicit_paddings": {"list": {}}, "num_args": {"i": "1"}, "epsilon": {"f": 0.0}, "padding": {"s": "U0FNRQ=="}, "fused_ops": {"list": {"s": ["Qmlhc0FkZA==", "UmVsdTY="]}}, "dilations": {"list": {"i": ["1", "1", "1", "1"]}}, "T": {"type": "DT_FLOAT"}}}, {"name": "StatefulPartitionedCall/sequential_2/keras_layer_1/StatefulPartitionedCall/StatefulPartitionedCall/StatefulPartitionedCall/predict/MobilenetV2/expanded_conv_16/depthwise/depthwise", "op": "FusedDepthwiseConv2dNative", "input": ["StatefulPartitionedCall/sequential_2/keras_layer_1/StatefulPartitionedCall/StatefulPartitionedCall/StatefulPartitionedCall/predict/MobilenetV2/expanded_conv_16/expand/Relu6", "StatefulPartitionedCall/sequential_2/keras_layer_1/StatefulPartitionedCall/StatefulPartitionedCall/StatefulPartitionedCall/predict/MobilenetV2/expanded_conv_16/depthwise/depthwise_weights", "StatefulPartitionedCall/sequential_2/keras_layer_1/StatefulPartitionedCall/StatefulPartitionedCall/StatefulPartitionedCall/predict/MobilenetV2/expanded_conv_16/depthwise/depthwise_bn_offset"], "attr": {"dilations": {"list": {"i": ["1", "1", "1", "1"]}}, "T": {"type": "DT_FLOAT"}, "strides": {"list": {"i": ["1", "1", "1", "1"]}}, "data_format": {"s": "TkhXQw=="}, "explicit_paddings": {"list": {}}, "num_args": {"i": "1"}, "padding": {"s": "U0FNRQ=="}, "fused_ops": {"list": {"s": ["Qmlhc0FkZA==", "UmVsdTY="]}}}}, {"name": "StatefulPartitionedCall/sequential_2/keras_layer_1/StatefulPartitionedCall/StatefulPartitionedCall/StatefulPartitionedCall/predict/MobilenetV2/expanded_conv_16/project/BatchNorm/FusedBatchNormV3", "op": "_FusedConv2D", "input": ["StatefulPartitionedCall/sequential_2/keras_layer_1/StatefulPartitionedCall/StatefulPartitionedCall/StatefulPartitionedCall/predict/MobilenetV2/expanded_conv_16/depthwise/depthwise", "StatefulPartitionedCall/sequential_2/keras_layer_1/StatefulPartitionedCall/StatefulPartitionedCall/StatefulPartitionedCall/predict/MobilenetV2/expanded_conv_16/project/Conv2D_weights", "StatefulPartitionedCall/sequential_2/keras_layer_1/StatefulPartitionedCall/StatefulPartitionedCall/StatefulPartitionedCall/predict/MobilenetV2/expanded_conv_16/project/Conv2D_bn_offset"], "device": "/device:CPU:0", "attr": {"fused_ops": {"list": {"s": ["Qmlhc0FkZA=="]}}, "dilations": {"list": {"i": ["1", "1", "1", "1"]}}, "T": {"type": "DT_FLOAT"}, "data_format": {"s": "TkhXQw=="}, "strides": {"list": {"i": ["1", "1", "1", "1"]}}, "use_cudnn_on_gpu": {"b": true}, "explicit_paddings": {"list": {}}, "num_args": {"i": "1"}, "epsilon": {"f": 0.0}, "padding": {"s": "U0FNRQ=="}}}, {"name": "StatefulPartitionedCall/sequential_2/keras_layer_1/StatefulPartitionedCall/StatefulPartitionedCall/StatefulPartitionedCall/predict/MobilenetV2/Conv_1/Relu6", "op": "_FusedConv2D", "input": ["StatefulPartitionedCall/sequential_2/keras_layer_1/StatefulPartitionedCall/StatefulPartitionedCall/StatefulPartitionedCall/predict/MobilenetV2/expanded_conv_16/project/BatchNorm/FusedBatchNormV3", "StatefulPartitionedCall/sequential_2/keras_layer_1/StatefulPartitionedCall/StatefulPartitionedCall/StatefulPartitionedCall/predict/MobilenetV2/Conv_1/Conv2D_weights", "StatefulPartitionedCall/sequential_2/keras_layer_1/StatefulPartitionedCall/StatefulPartitionedCall/StatefulPartitionedCall/predict/MobilenetV2/Conv_1/Conv2D_bn_offset"], "device": "/device:CPU:0", "attr": {"fused_ops": {"list": {"s": ["Qmlhc0FkZA==", "UmVsdTY="]}}, "dilations": {"list": {"i": ["1", "1", "1", "1"]}}, "T": {"type": "DT_FLOAT"}, "data_format": {"s": "TkhXQw=="}, "strides": {"list": {"i": ["1", "1", "1", "1"]}}, "explicit_paddings": {"list": {}}, "use_cudnn_on_gpu": {"b": true}, "num_args": {"i": "1"}, "epsilon": {"f": 0.0}, "padding": {"s": "U0FNRQ=="}}}, {"name": "StatefulPartitionedCall/sequential_2/keras_layer_1/StatefulPartitionedCall/StatefulPartitionedCall/StatefulPartitionedCall/predict/MobilenetV2/Logits/AvgPool", "op": "AvgPool", "input": ["StatefulPartitionedCall/sequential_2/keras_layer_1/StatefulPartitionedCall/StatefulPartitionedCall/StatefulPartitionedCall/predict/MobilenetV2/Conv_1/Relu6"], "attr": {"ksize": {"list": {"i": ["1", "7", "7", "1"]}}, "padding": {"s": "VkFMSUQ="}, "T": {"type": "DT_FLOAT"}, "strides": {"list": {"i": ["1", "1", "1", "1"]}}, "data_format": {"s": "TkhXQw=="}}}, {"name": "StatefulPartitionedCall/sequential_2/keras_layer_1/StatefulPartitionedCall/StatefulPartitionedCall/StatefulPartitionedCall/predict/MobilenetV2/Logits/Conv2d_1c_1x1/BiasAdd", "op": "_FusedConv2D", "input": ["StatefulPartitionedCall/sequential_2/keras_layer_1/StatefulPartitionedCall/StatefulPartitionedCall/StatefulPartitionedCall/predict/MobilenetV2/Logits/AvgPool", "StatefulPartitionedCall/sequential_2/keras_layer_1/StatefulPartitionedCall/StatefulPartitionedCall/StatefulPartitionedCall/predict/MobilenetV2/Logits/Conv2d_1c_1x1/Conv2D/ReadVariableOp", "StatefulPartitionedCall/sequential_2/keras_layer_1/StatefulPartitionedCall/StatefulPartitionedCall/StatefulPartitionedCall/predict/MobilenetV2/Logits/Conv2d_1c_1x1/BiasAdd/ReadVariableOp"], "device": "/device:CPU:0", "attr": {"fused_ops": {"list": {"s": ["Qmlhc0FkZA=="]}}, "dilations": {"list": {"i": ["1", "1", "1", "1"]}}, "T": {"type": "DT_FLOAT"}, "data_format": {"s": "TkhXQw=="}, "strides": {"list": {"i": ["1", "1", "1", "1"]}}, "explicit_paddings": {"list": {}}, "use_cudnn_on_gpu": {"b": true}, "num_args": {"i": "1"}, "epsilon": {"f": 0.0}, "padding": {"s": "U0FNRQ=="}}}, {"name": "StatefulPartitionedCall/sequential_2/keras_layer_1/StatefulPartitionedCall/StatefulPartitionedCall/StatefulPartitionedCall/predict/MobilenetV2/Logits/Squeeze", "op": "Squeeze", "input": ["StatefulPartitionedCall/sequential_2/keras_layer_1/StatefulPartitionedCall/StatefulPartitionedCall/StatefulPartitionedCall/predict/MobilenetV2/Logits/Conv2d_1c_1x1/BiasAdd"], "attr": {"squeeze_dims": {"list": {"i": ["1", "2"]}}, "T": {"type": "DT_FLOAT"}}}, {"name": "StatefulPartitionedCall/sequential_2/dense_3/BiasAdd", "op": "_FusedMatMul", "input": ["StatefulPartitionedCall/sequential_2/keras_layer_1/StatefulPartitionedCall/StatefulPartitionedCall/StatefulPartitionedCall/predict/MobilenetV2/Logits/Squeeze", "unknown_261", "unknown_262"], "device": "/device:CPU:0", "attr": {"num_args": {"i": "1"}, "epsilon": {"f": 0.0}, "fused_ops": {"list": {"s": ["Qmlhc0FkZA=="]}}, "transpose_a": {"b": false}, "transpose_b": {"b": false}, "T": {"type": "DT_FLOAT"}}}, {"name": "StatefulPartitionedCall/sequential_2/dense_3/Softmax", "op": "Softmax", "input": ["StatefulPartitionedCall/sequential_2/dense_3/BiasAdd"], "attr": {"T": {"type": "DT_FLOAT"}}}, {"name": "Identity", "op": "Identity", "input": ["StatefulPartitionedCall/sequential_2/dense_3/Softmax"], "attr": {"T": {"type": "DT_FLOAT"}}}], "library": {}, "versions": {"producer": 440}}, "weightsManifest": [{"paths": ["group1-shard1of6.bin", "group1-shard2of6.bin", "group1-shard3of6.bin", "group1-shard4of6.bin", "group1-shard5of6.bin", "group1-shard6of6.bin"], "weights": [{"name": "unknown_261", "shape": [1001, 120], "dtype": "float32"}, {"name": "unknown_262", "shape": [120], "dtype": "float32"}, {"name": "StatefulPartitionedCall/sequential_2/keras_layer_1/StatefulPartitionedCall/StatefulPartitionedCall/StatefulPartitionedCall/predict/MobilenetV2/Conv/Conv2D_weights", "shape": [3, 3, 3, 40], "dtype": "float32"}, {"name": "StatefulPartitionedCall/sequential_2/keras_layer_1/StatefulPartitionedCall/StatefulPartitionedCall/StatefulPartitionedCall/predict/MobilenetV2/expanded_conv_14/expand/Conv2D_bn_offset", "shape": [1248], "dtype": "float32"}, {"name": "StatefulPartitionedCall/sequential_2/keras_layer_1/StatefulPartitionedCall/StatefulPartitionedCall/StatefulPartitionedCall/predict/MobilenetV2/Conv/Conv2D_bn_offset", "shape": [40], "dtype": "float32"}, {"name": "StatefulPartitionedCall/sequential_2/keras_layer_1/StatefulPartitionedCall/StatefulPartitionedCall/StatefulPartitionedCall/predict/MobilenetV2/expanded_conv/depthwise/depthwise_weights", "shape": [3, 3, 40, 1], "dtype": "float32"}, {"name": "StatefulPartitionedCall/sequential_2/keras_layer_1/StatefulPartitionedCall/StatefulPartitionedCall/StatefulPartitionedCall/predict/MobilenetV2/expanded_conv/depthwise/depthwise_bn_offset", "shape": [40], "dtype": "float32"}, {"name": "StatefulPartitionedCall/sequential_2/keras_layer_1/StatefulPartitionedCall/StatefulPartitionedCall/StatefulPartitionedCall/predict/MobilenetV2/expanded_conv/project/Conv2D_weights", "shape": [1, 1, 40, 24], "dtype": "float32"}, {"name": "StatefulPartitionedCall/sequential_2/keras_layer_1/StatefulPartitionedCall/StatefulPartitionedCall/StatefulPartitionedCall/predict/MobilenetV2/expanded_conv/project/Conv2D_bn_offset", "shape": [24], "dtype": "float32"}, {"name": "StatefulPartitionedCall/sequential_2/keras_layer_1/StatefulPartitionedCall/StatefulPartitionedCall/StatefulPartitionedCall/predict/MobilenetV2/expanded_conv_1/expand/Conv2D_weights", "shape": [1, 1, 24, 144], "dtype": "float32"}, {"name": "StatefulPartitionedCall/sequential_2/keras_layer_1/StatefulPartitionedCall/StatefulPartitionedCall/StatefulPartitionedCall/predict/MobilenetV2/expanded_conv_14/depthwise/depthwise_weights", "shape": [3, 3, 1248, 1], "dtype": "float32"}, {"name": "StatefulPartitionedCall/sequential_2/keras_layer_1/StatefulPartitionedCall/StatefulPartitionedCall/StatefulPartitionedCall/predict/MobilenetV2/expanded_conv_1/expand/Conv2D_bn_offset", "shape": [144], "dtype": "float32"}, {"name": "StatefulPartitionedCall/sequential_2/keras_layer_1/StatefulPartitionedCall/StatefulPartitionedCall/StatefulPartitionedCall/predict/MobilenetV2/expanded_conv_1/depthwise/depthwise_weights", "shape": [3, 3, 144, 1], "dtype": "float32"}, {"name": "StatefulPartitionedCall/sequential_2/keras_layer_1/StatefulPartitionedCall/StatefulPartitionedCall/StatefulPartitionedCall/predict/MobilenetV2/expanded_conv_1/depthwise/depthwise_bn_offset", "shape": [144], "dtype": "float32"}, {"name": "StatefulPartitionedCall/sequential_2/keras_layer_1/StatefulPartitionedCall/StatefulPartitionedCall/StatefulPartitionedCall/predict/MobilenetV2/expanded_conv_1/project/Conv2D_weights", "shape": [1, 1, 144, 32], "dtype": "float32"}, {"name": "StatefulPartitionedCall/sequential_2/keras_layer_1/StatefulPartitionedCall/StatefulPartitionedCall/StatefulPartitionedCall/predict/MobilenetV2/expanded_conv_14/depthwise/depthwise_bn_offset", "shape": [1248], "dtype": "float32"}, {"name": "StatefulPartitionedCall/sequential_2/keras_layer_1/StatefulPartitionedCall/StatefulPartitionedCall/StatefulPartitionedCall/predict/MobilenetV2/expanded_conv_1/project/Conv2D_bn_offset", "shape": [32], "dtype": "float32"}, {"name": "StatefulPartitionedCall/sequential_2/keras_layer_1/StatefulPartitionedCall/StatefulPartitionedCall/StatefulPartitionedCall/predict/MobilenetV2/expanded_conv_2/expand/Conv2D_weights", "shape": [1, 1, 32, 192], "dtype": "float32"}, {"name": "StatefulPartitionedCall/sequential_2/keras_layer_1/StatefulPartitionedCall/StatefulPartitionedCall/StatefulPartitionedCall/predict/MobilenetV2/expanded_conv_2/expand/Conv2D_bn_offset", "shape": [192], "dtype": "float32"}, {"name": "StatefulPartitionedCall/sequential_2/keras_layer_1/StatefulPartitionedCall/StatefulPartitionedCall/StatefulPartitionedCall/predict/MobilenetV2/expanded_conv_2/depthwise/depthwise_weights", "shape": [3, 3, 192, 1], "dtype": "float32"}, {"name": "StatefulPartitionedCall/sequential_2/keras_layer_1/StatefulPartitionedCall/StatefulPartitionedCall/StatefulPartitionedCall/predict/MobilenetV2/expanded_conv_2/depthwise/depthwise_bn_offset", "shape": [192], "dtype": "float32"}, {"name": "StatefulPartitionedCall/sequential_2/keras_layer_1/StatefulPartitionedCall/StatefulPartitionedCall/StatefulPartitionedCall/predict/MobilenetV2/expanded_conv_2/project/Conv2D_weights", "shape": [1, 1, 192, 32], "dtype": "float32"}, {"name": "StatefulPartitionedCall/sequential_2/keras_layer_1/StatefulPartitionedCall/StatefulPartitionedCall/StatefulPartitionedCall/predict/MobilenetV2/expanded_conv_14/project/Conv2D_weights", "shape": [1, 1, 1248, 208], "dtype": "float32"}, {"name": "StatefulPartitionedCall/sequential_2/keras_layer_1/StatefulPartitionedCall/StatefulPartitionedCall/StatefulPartitionedCall/predict/MobilenetV2/expanded_conv_2/project/Conv2D_bn_offset", "shape": [32], "dtype": "float32"}, {"name": "StatefulPartitionedCall/sequential_2/keras_layer_1/StatefulPartitionedCall/StatefulPartitionedCall/StatefulPartitionedCall/predict/MobilenetV2/expanded_conv_3/expand/Conv2D_weights", "shape": [1, 1, 32, 192], "dtype": "float32"}, {"name": "StatefulPartitionedCall/sequential_2/keras_layer_1/StatefulPartitionedCall/StatefulPartitionedCall/StatefulPartitionedCall/predict/MobilenetV2/Conv_1/Conv2D_bn_offset", "shape": [1664], "dtype": "float32"}, {"name": "StatefulPartitionedCall/sequential_2/keras_layer_1/StatefulPartitionedCall/StatefulPartitionedCall/StatefulPartitionedCall/predict/MobilenetV2/expanded_conv_3/expand/Conv2D_bn_offset", "shape": [192], "dtype": "float32"}, {"name": "StatefulPartitionedCall/sequential_2/keras_layer_1/StatefulPartitionedCall/StatefulPartitionedCall/StatefulPartitionedCall/predict/MobilenetV2/expanded_conv_14/project/Conv2D_bn_offset", "shape": [208], "dtype": "float32"}, {"name": "StatefulPartitionedCall/sequential_2/keras_layer_1/StatefulPartitionedCall/StatefulPartitionedCall/StatefulPartitionedCall/predict/MobilenetV2/expanded_conv_3/depthwise/depthwise_weights", "shape": [3, 3, 192, 1], "dtype": "float32"}, {"name": "StatefulPartitionedCall/sequential_2/keras_layer_1/StatefulPartitionedCall/StatefulPartitionedCall/StatefulPartitionedCall/predict/MobilenetV2/expanded_conv_3/depthwise/depthwise_bn_offset", "shape": [192], "dtype": "float32"}, {"name": "StatefulPartitionedCall/sequential_2/keras_layer_1/StatefulPartitionedCall/StatefulPartitionedCall/StatefulPartitionedCall/predict/MobilenetV2/expanded_conv_3/project/Conv2D_weights", "shape": [1, 1, 192, 40], "dtype": "float32"}, {"name": "StatefulPartitionedCall/sequential_2/keras_layer_1/StatefulPartitionedCall/StatefulPartitionedCall/StatefulPartitionedCall/predict/MobilenetV2/expanded_conv_3/project/Conv2D_bn_offset", "shape": [40], "dtype": "float32"}, {"name": "StatefulPartitionedCall/sequential_2/keras_layer_1/StatefulPartitionedCall/StatefulPartitionedCall/StatefulPartitionedCall/predict/MobilenetV2/expanded_conv_4/expand/Conv2D_weights", "shape": [1, 1, 40, 240], "dtype": "float32"}, {"name": "StatefulPartitionedCall/sequential_2/keras_layer_1/StatefulPartitionedCall/StatefulPartitionedCall/StatefulPartitionedCall/predict/MobilenetV2/expanded_conv_4/expand/Conv2D_bn_offset", "shape": [240], "dtype": "float32"}, {"name": "StatefulPartitionedCall/sequential_2/keras_layer_1/StatefulPartitionedCall/StatefulPartitionedCall/StatefulPartitionedCall/predict/MobilenetV2/expanded_conv_15/expand/Conv2D_weights", "shape": [1, 1, 208, 1248], "dtype": "float32"}, {"name": "StatefulPartitionedCall/sequential_2/keras_layer_1/StatefulPartitionedCall/StatefulPartitionedCall/StatefulPartitionedCall/predict/MobilenetV2/expanded_conv_4/depthwise/depthwise_weights", "shape": [3, 3, 240, 1], "dtype": "float32"}, {"name": "StatefulPartitionedCall/sequential_2/keras_layer_1/StatefulPartitionedCall/StatefulPartitionedCall/StatefulPartitionedCall/predict/MobilenetV2/expanded_conv_4/depthwise/depthwise_bn_offset", "shape": [240], "dtype": "float32"}, {"name": "StatefulPartitionedCall/sequential_2/keras_layer_1/StatefulPartitionedCall/StatefulPartitionedCall/StatefulPartitionedCall/predict/MobilenetV2/expanded_conv_4/project/Conv2D_weights", "shape": [1, 1, 240, 40], "dtype": "float32"}, {"name": "StatefulPartitionedCall/sequential_2/keras_layer_1/StatefulPartitionedCall/StatefulPartitionedCall/StatefulPartitionedCall/predict/MobilenetV2/expanded_conv_4/project/Conv2D_bn_offset", "shape": [40], "dtype": "float32"}, {"name": "StatefulPartitionedCall/sequential_2/keras_layer_1/StatefulPartitionedCall/StatefulPartitionedCall/StatefulPartitionedCall/predict/MobilenetV2/expanded_conv_5/expand/Conv2D_weights", "shape": [1, 1, 40, 240], "dtype": "float32"}, {"name": "StatefulPartitionedCall/sequential_2/keras_layer_1/StatefulPartitionedCall/StatefulPartitionedCall/StatefulPartitionedCall/predict/MobilenetV2/expanded_conv_15/expand/Conv2D_bn_offset", "shape": [1248], "dtype": "float32"}, {"name": "StatefulPartitionedCall/sequential_2/keras_layer_1/StatefulPartitionedCall/StatefulPartitionedCall/StatefulPartitionedCall/predict/MobilenetV2/expanded_conv_5/expand/Conv2D_bn_offset", "shape": [240], "dtype": "float32"}, {"name": "StatefulPartitionedCall/sequential_2/keras_layer_1/StatefulPartitionedCall/StatefulPartitionedCall/StatefulPartitionedCall/predict/MobilenetV2/expanded_conv_5/depthwise/depthwise_weights", "shape": [3, 3, 240, 1], "dtype": "float32"}, {"name": "StatefulPartitionedCall/sequential_2/keras_layer_1/StatefulPartitionedCall/StatefulPartitionedCall/StatefulPartitionedCall/predict/MobilenetV2/expanded_conv_5/depthwise/depthwise_bn_offset", "shape": [240], "dtype": "float32"}, {"name": "StatefulPartitionedCall/sequential_2/keras_layer_1/StatefulPartitionedCall/StatefulPartitionedCall/StatefulPartitionedCall/predict/MobilenetV2/expanded_conv_5/project/Conv2D_weights", "shape": [1, 1, 240, 40], "dtype": "float32"}, {"name": "StatefulPartitionedCall/sequential_2/keras_layer_1/StatefulPartitionedCall/StatefulPartitionedCall/StatefulPartitionedCall/predict/MobilenetV2/expanded_conv_5/project/Conv2D_bn_offset", "shape": [40], "dtype": "float32"}, {"name": "StatefulPartitionedCall/sequential_2/keras_layer_1/StatefulPartitionedCall/StatefulPartitionedCall/StatefulPartitionedCall/predict/MobilenetV2/expanded_conv_6/expand/Conv2D_weights", "shape": [1, 1, 40, 240], "dtype": "float32"}, {"name": "StatefulPartitionedCall/sequential_2/keras_layer_1/StatefulPartitionedCall/StatefulPartitionedCall/StatefulPartitionedCall/predict/MobilenetV2/expanded_conv_15/depthwise/depthwise_weights", "shape": [3, 3, 1248, 1], "dtype": "float32"}, {"name": "StatefulPartitionedCall/sequential_2/keras_layer_1/StatefulPartitionedCall/StatefulPartitionedCall/StatefulPartitionedCall/predict/MobilenetV2/expanded_conv_6/expand/Conv2D_bn_offset", "shape": [240], "dtype": "float32"}, {"name": "StatefulPartitionedCall/sequential_2/keras_layer_1/StatefulPartitionedCall/StatefulPartitionedCall/StatefulPartitionedCall/predict/MobilenetV2/expanded_conv_6/depthwise/depthwise_weights", "shape": [3, 3, 240, 1], "dtype": "float32"}, {"name": "StatefulPartitionedCall/sequential_2/keras_layer_1/StatefulPartitionedCall/StatefulPartitionedCall/StatefulPartitionedCall/predict/MobilenetV2/expanded_conv_6/depthwise/depthwise_bn_offset", "shape": [240], "dtype": "float32"}, {"name": "StatefulPartitionedCall/sequential_2/keras_layer_1/StatefulPartitionedCall/StatefulPartitionedCall/StatefulPartitionedCall/predict/MobilenetV2/expanded_conv_6/project/Conv2D_weights", "shape": [1, 1, 240, 80], "dtype": "float32"}, {"name": "StatefulPartitionedCall/sequential_2/keras_layer_1/StatefulPartitionedCall/StatefulPartitionedCall/StatefulPartitionedCall/predict/MobilenetV2/expanded_conv_15/depthwise/depthwise_bn_offset", "shape": [1248], "dtype": "float32"}, {"name": "StatefulPartitionedCall/sequential_2/keras_layer_1/StatefulPartitionedCall/StatefulPartitionedCall/StatefulPartitionedCall/predict/MobilenetV2/expanded_conv_6/project/Conv2D_bn_offset", "shape": [80], "dtype": "float32"}, {"name": "StatefulPartitionedCall/sequential_2/keras_layer_1/StatefulPartitionedCall/StatefulPartitionedCall/StatefulPartitionedCall/predict/MobilenetV2/expanded_conv_7/expand/Conv2D_weights", "shape": [1, 1, 80, 480], "dtype": "float32"}, {"name": "StatefulPartitionedCall/sequential_2/keras_layer_1/StatefulPartitionedCall/StatefulPartitionedCall/StatefulPartitionedCall/predict/MobilenetV2/expanded_conv_7/expand/Conv2D_bn_offset", "shape": [480], "dtype": "float32"}, {"name": "StatefulPartitionedCall/sequential_2/keras_layer_1/StatefulPartitionedCall/StatefulPartitionedCall/StatefulPartitionedCall/predict/MobilenetV2/expanded_conv_7/depthwise/depthwise_weights", "shape": [3, 3, 480, 1], "dtype": "float32"}, {"name": "StatefulPartitionedCall/sequential_2/keras_layer_1/StatefulPartitionedCall/StatefulPartitionedCall/StatefulPartitionedCall/predict/MobilenetV2/expanded_conv_7/depthwise/depthwise_bn_offset", "shape": [480], "dtype": "float32"}, {"name": "StatefulPartitionedCall/sequential_2/keras_layer_1/StatefulPartitionedCall/StatefulPartitionedCall/StatefulPartitionedCall/predict/MobilenetV2/expanded_conv_7/project/Conv2D_weights", "shape": [1, 1, 480, 80], "dtype": "float32"}, {"name": "StatefulPartitionedCall/sequential_2/keras_layer_1/StatefulPartitionedCall/StatefulPartitionedCall/StatefulPartitionedCall/predict/MobilenetV2/expanded_conv_15/project/Conv2D_weights", "shape": [1, 1, 1248, 208], "dtype": "float32"}, {"name": "StatefulPartitionedCall/sequential_2/keras_layer_1/StatefulPartitionedCall/StatefulPartitionedCall/StatefulPartitionedCall/predict/MobilenetV2/expanded_conv_7/project/Conv2D_bn_offset", "shape": [80], "dtype": "float32"}, {"name": "StatefulPartitionedCall/sequential_2/keras_layer_1/StatefulPartitionedCall/StatefulPartitionedCall/StatefulPartitionedCall/predict/MobilenetV2/expanded_conv_8/expand/Conv2D_weights", "shape": [1, 1, 80, 480], "dtype": "float32"}, {"name": "StatefulPartitionedCall/sequential_2/keras_layer_1/StatefulPartitionedCall/StatefulPartitionedCall/StatefulPartitionedCall/predict/MobilenetV2/expanded_conv_8/expand/Conv2D_bn_offset", "shape": [480], "dtype": "float32"}, {"name": "StatefulPartitionedCall/sequential_2/keras_layer_1/StatefulPartitionedCall/StatefulPartitionedCall/StatefulPartitionedCall/predict/MobilenetV2/expanded_conv_15/project/Conv2D_bn_offset", "shape": [208], "dtype": "float32"}, {"name": "StatefulPartitionedCall/sequential_2/keras_layer_1/StatefulPartitionedCall/StatefulPartitionedCall/StatefulPartitionedCall/predict/MobilenetV2/expanded_conv_8/depthwise/depthwise_weights", "shape": [3, 3, 480, 1], "dtype": "float32"}, {"name": "StatefulPartitionedCall/sequential_2/keras_layer_1/StatefulPartitionedCall/StatefulPartitionedCall/StatefulPartitionedCall/predict/MobilenetV2/expanded_conv_8/depthwise/depthwise_bn_offset", "shape": [480], "dtype": "float32"}, {"name": "StatefulPartitionedCall/sequential_2/keras_layer_1/StatefulPartitionedCall/StatefulPartitionedCall/StatefulPartitionedCall/predict/MobilenetV2/expanded_conv_8/project/Conv2D_weights", "shape": [1, 1, 480, 80], "dtype": "float32"}, {"name": "StatefulPartitionedCall/sequential_2/keras_layer_1/StatefulPartitionedCall/StatefulPartitionedCall/StatefulPartitionedCall/predict/MobilenetV2/expanded_conv_8/project/Conv2D_bn_offset", "shape": [80], "dtype": "float32"}, {"name": "StatefulPartitionedCall/sequential_2/keras_layer_1/StatefulPartitionedCall/StatefulPartitionedCall/StatefulPartitionedCall/predict/MobilenetV2/expanded_conv_9/expand/Conv2D_weights", "shape": [1, 1, 80, 480], "dtype": "float32"}, {"name": "StatefulPartitionedCall/sequential_2/keras_layer_1/StatefulPartitionedCall/StatefulPartitionedCall/StatefulPartitionedCall/predict/MobilenetV2/expanded_conv_9/expand/Conv2D_bn_offset", "shape": [480], "dtype": "float32"}, {"name": "StatefulPartitionedCall/sequential_2/keras_layer_1/StatefulPartitionedCall/StatefulPartitionedCall/StatefulPartitionedCall/predict/MobilenetV2/expanded_conv_16/expand/Conv2D_weights", "shape": [1, 1, 208, 1248], "dtype": "float32"}, {"name": "StatefulPartitionedCall/sequential_2/keras_layer_1/StatefulPartitionedCall/StatefulPartitionedCall/StatefulPartitionedCall/predict/MobilenetV2/expanded_conv_9/depthwise/depthwise_weights", "shape": [3, 3, 480, 1], "dtype": "float32"}, {"name": "StatefulPartitionedCall/sequential_2/keras_layer_1/StatefulPartitionedCall/StatefulPartitionedCall/StatefulPartitionedCall/predict/MobilenetV2/expanded_conv_9/depthwise/depthwise_bn_offset", "shape": [480], "dtype": "float32"}, {"name": "StatefulPartitionedCall/sequential_2/keras_layer_1/StatefulPartitionedCall/StatefulPartitionedCall/StatefulPartitionedCall/predict/MobilenetV2/expanded_conv_9/project/Conv2D_weights", "shape": [1, 1, 480, 80], "dtype": "float32"}, {"name": "StatefulPartitionedCall/sequential_2/keras_layer_1/StatefulPartitionedCall/StatefulPartitionedCall/StatefulPartitionedCall/predict/MobilenetV2/expanded_conv_9/project/Conv2D_bn_offset", "shape": [80], "dtype": "float32"}, {"name": "StatefulPartitionedCall/sequential_2/keras_layer_1/StatefulPartitionedCall/StatefulPartitionedCall/StatefulPartitionedCall/predict/MobilenetV2/expanded_conv_10/expand/Conv2D_weights", "shape": [1, 1, 80, 480], "dtype": "float32"}, {"name": "StatefulPartitionedCall/sequential_2/keras_layer_1/StatefulPartitionedCall/StatefulPartitionedCall/StatefulPartitionedCall/predict/MobilenetV2/expanded_conv_16/expand/Conv2D_bn_offset", "shape": [1248], "dtype": "float32"}, {"name": "StatefulPartitionedCall/sequential_2/keras_layer_1/StatefulPartitionedCall/StatefulPartitionedCall/StatefulPartitionedCall/predict/MobilenetV2/expanded_conv_10/expand/Conv2D_bn_offset", "shape": [480], "dtype": "float32"}, {"name": "StatefulPartitionedCall/sequential_2/keras_layer_1/StatefulPartitionedCall/StatefulPartitionedCall/StatefulPartitionedCall/predict/MobilenetV2/expanded_conv_10/depthwise/depthwise_weights", "shape": [3, 3, 480, 1], "dtype": "float32"}, {"name": "StatefulPartitionedCall/sequential_2/keras_layer_1/StatefulPartitionedCall/StatefulPartitionedCall/StatefulPartitionedCall/predict/MobilenetV2/expanded_conv_10/depthwise/depthwise_bn_offset", "shape": [480], "dtype": "float32"}, {"name": "StatefulPartitionedCall/sequential_2/keras_layer_1/StatefulPartitionedCall/StatefulPartitionedCall/StatefulPartitionedCall/predict/MobilenetV2/expanded_conv_10/project/Conv2D_weights", "shape": [1, 1, 480, 128], "dtype": "float32"}, {"name": "StatefulPartitionedCall/sequential_2/keras_layer_1/StatefulPartitionedCall/StatefulPartitionedCall/StatefulPartitionedCall/predict/MobilenetV2/expanded_conv_10/project/Conv2D_bn_offset", "shape": [128], "dtype": "float32"}, {"name": "StatefulPartitionedCall/sequential_2/keras_layer_1/StatefulPartitionedCall/StatefulPartitionedCall/StatefulPartitionedCall/predict/MobilenetV2/expanded_conv_11/expand/Conv2D_weights", "shape": [1, 1, 128, 768], "dtype": "float32"}, {"name": "StatefulPartitionedCall/sequential_2/keras_layer_1/StatefulPartitionedCall/StatefulPartitionedCall/StatefulPartitionedCall/predict/MobilenetV2/expanded_conv_16/depthwise/depthwise_weights", "shape": [3, 3, 1248, 1], "dtype": "float32"}, {"name": "StatefulPartitionedCall/sequential_2/keras_layer_1/StatefulPartitionedCall/StatefulPartitionedCall/StatefulPartitionedCall/predict/MobilenetV2/expanded_conv_11/expand/Conv2D_bn_offset", "shape": [768], "dtype": "float32"}, {"name": "StatefulPartitionedCall/sequential_2/keras_layer_1/StatefulPartitionedCall/StatefulPartitionedCall/StatefulPartitionedCall/predict/MobilenetV2/expanded_conv_11/depthwise/depthwise_weights", "shape": [3, 3, 768, 1], "dtype": "float32"}, {"name": "StatefulPartitionedCall/sequential_2/keras_layer_1/StatefulPartitionedCall/StatefulPartitionedCall/StatefulPartitionedCall/predict/MobilenetV2/expanded_conv_11/depthwise/depthwise_bn_offset", "shape": [768], "dtype": "float32"}, {"name": "StatefulPartitionedCall/sequential_2/keras_layer_1/StatefulPartitionedCall/StatefulPartitionedCall/StatefulPartitionedCall/predict/MobilenetV2/expanded_conv_11/project/Conv2D_weights", "shape": [1, 1, 768, 128], "dtype": "float32"}, {"name": "StatefulPartitionedCall/sequential_2/keras_layer_1/StatefulPartitionedCall/StatefulPartitionedCall/StatefulPartitionedCall/predict/MobilenetV2/expanded_conv_16/depthwise/depthwise_bn_offset", "shape": [1248], "dtype": "float32"}, {"name": "StatefulPartitionedCall/sequential_2/keras_layer_1/StatefulPartitionedCall/StatefulPartitionedCall/StatefulPartitionedCall/predict/MobilenetV2/expanded_conv_11/project/Conv2D_bn_offset", "shape": [128], "dtype": "float32"}, {"name": "StatefulPartitionedCall/sequential_2/keras_layer_1/StatefulPartitionedCall/StatefulPartitionedCall/StatefulPartitionedCall/predict/MobilenetV2/expanded_conv_12/expand/Conv2D_weights", "shape": [1, 1, 128, 768], "dtype": "float32"}, {"name": "StatefulPartitionedCall/sequential_2/keras_layer_1/StatefulPartitionedCall/StatefulPartitionedCall/StatefulPartitionedCall/predict/MobilenetV2/expanded_conv_12/expand/Conv2D_bn_offset", "shape": [768], "dtype": "float32"}, {"name": "StatefulPartitionedCall/sequential_2/keras_layer_1/StatefulPartitionedCall/StatefulPartitionedCall/StatefulPartitionedCall/predict/MobilenetV2/expanded_conv_12/depthwise/depthwise_weights", "shape": [3, 3, 768, 1], "dtype": "float32"}, {"name": "StatefulPartitionedCall/sequential_2/keras_layer_1/StatefulPartitionedCall/StatefulPartitionedCall/StatefulPartitionedCall/predict/MobilenetV2/expanded_conv_12/depthwise/depthwise_bn_offset", "shape": [768], "dtype": "float32"}, {"name": "StatefulPartitionedCall/sequential_2/keras_layer_1/StatefulPartitionedCall/StatefulPartitionedCall/StatefulPartitionedCall/predict/MobilenetV2/expanded_conv_12/project/Conv2D_weights", "shape": [1, 1, 768, 128], "dtype": "float32"}, {"name": "StatefulPartitionedCall/sequential_2/keras_layer_1/StatefulPartitionedCall/StatefulPartitionedCall/StatefulPartitionedCall/predict/MobilenetV2/expanded_conv_16/project/Conv2D_weights", "shape": [1, 1, 1248, 416], "dtype": "float32"}, {"name": "StatefulPartitionedCall/sequential_2/keras_layer_1/StatefulPartitionedCall/StatefulPartitionedCall/StatefulPartitionedCall/predict/MobilenetV2/expanded_conv_12/project/Conv2D_bn_offset", "shape": [128], "dtype": "float32"}, {"name": "StatefulPartitionedCall/sequential_2/keras_layer_1/StatefulPartitionedCall/StatefulPartitionedCall/StatefulPartitionedCall/predict/MobilenetV2/expanded_conv_13/expand/Conv2D_weights", "shape": [1, 1, 128, 768], "dtype": "float32"}, {"name": "StatefulPartitionedCall/sequential_2/keras_layer_1/StatefulPartitionedCall/StatefulPartitionedCall/StatefulPartitionedCall/predict/MobilenetV2/expanded_conv_13/expand/Conv2D_bn_offset", "shape": [768], "dtype": "float32"}, {"name": "StatefulPartitionedCall/sequential_2/keras_layer_1/StatefulPartitionedCall/StatefulPartitionedCall/StatefulPartitionedCall/predict/MobilenetV2/expanded_conv_16/project/Conv2D_bn_offset", "shape": [416], "dtype": "float32"}, {"name": "StatefulPartitionedCall/sequential_2/keras_layer_1/StatefulPartitionedCall/StatefulPartitionedCall/StatefulPartitionedCall/predict/MobilenetV2/expanded_conv_13/depthwise/depthwise_weights", "shape": [3, 3, 768, 1], "dtype": "float32"}, {"name": "StatefulPartitionedCall/sequential_2/keras_layer_1/StatefulPartitionedCall/StatefulPartitionedCall/StatefulPartitionedCall/predict/MobilenetV2/expanded_conv_13/depthwise/depthwise_bn_offset", "shape": [768], "dtype": "float32"}, {"name": "StatefulPartitionedCall/sequential_2/keras_layer_1/StatefulPartitionedCall/StatefulPartitionedCall/StatefulPartitionedCall/predict/MobilenetV2/expanded_conv_13/project/Conv2D_weights", "shape": [1, 1, 768, 208], "dtype": "float32"}, {"name": "StatefulPartitionedCall/sequential_2/keras_layer_1/StatefulPartitionedCall/StatefulPartitionedCall/StatefulPartitionedCall/predict/MobilenetV2/expanded_conv_13/project/Conv2D_bn_offset", "shape": [208], "dtype": "float32"}, {"name": "StatefulPartitionedCall/sequential_2/keras_layer_1/StatefulPartitionedCall/StatefulPartitionedCall/StatefulPartitionedCall/predict/MobilenetV2/expanded_conv_14/expand/Conv2D_weights", "shape": [1, 1, 208, 1248], "dtype": "float32"}, {"name": "StatefulPartitionedCall/sequential_2/keras_layer_1/StatefulPartitionedCall/StatefulPartitionedCall/StatefulPartitionedCall/predict/MobilenetV2/Conv_1/Conv2D_weights", "shape": [1, 1, 416, 1664], "dtype": "float32"}, {"name": "StatefulPartitionedCall/sequential_2/keras_layer_1/StatefulPartitionedCall/StatefulPartitionedCall/StatefulPartitionedCall/predict/hub_input/Mul/y", "shape": [], "dtype": "float32"}, {"name": "StatefulPartitionedCall/sequential_2/keras_layer_1/StatefulPartitionedCall/StatefulPartitionedCall/StatefulPartitionedCall/predict/hub_input/Sub/y", "shape": [], "dtype": "float32"}, {"name": "StatefulPartitionedCall/sequential_2/keras_layer_1/StatefulPartitionedCall/StatefulPartitionedCall/StatefulPartitionedCall/predict/MobilenetV2/Logits/Conv2d_1c_1x1/Conv2D/ReadVariableOp", "shape": [1, 1, 1664, 1001], "dtype": "float32"}, {"name": "StatefulPartitionedCall/sequential_2/keras_layer_1/StatefulPartitionedCall/StatefulPartitionedCall/StatefulPartitionedCall/predict/MobilenetV2/Logits/Conv2d_1c_1x1/BiasAdd/ReadVariableOp", "shape": [1001], "dtype": "float32"}]}]}